<?xml version="1.0" ?>
<net name="torch-jit-export" version="11">
	<layers>
		<layer id="164" name="image" type="Parameter" version="opset1">
			<data shape="1,3,720,1280" element_type="f32"/>
			<rt_info>
				<attribute name="old_api_map_element_type" version="0" value="f16"/>
			</rt_info>
			<output>
				<port id="0" precision="FP32" names="image">
					<dim>1</dim>
					<dim>3</dim>
					<dim>720</dim>
					<dim>1280</dim>
					<rt_info>
						<attribute name="layout" version="0" layout="[N,C,H,W]"/>
					</rt_info>
				</port>
			</output>
		</layer>
		<layer id="0" name="121481215247166" type="Const" version="opset1">
			<data offset="0" size="4" shape="" element_type="f32"/>
			<output>
				<port id="0" precision="FP32"/>
			</output>
		</layer>
		<layer id="1" name="121491215342438" type="Const" version="opset1">
			<data offset="4" size="4" shape="" element_type="f32"/>
			<output>
				<port id="0" precision="FP32"/>
			</output>
		</layer>
		<layer id="2" name="121501215442222" type="Const" version="opset1">
			<data offset="0" size="4" shape="" element_type="f32"/>
			<output>
				<port id="0" precision="FP32"/>
			</output>
		</layer>
		<layer id="3" name="121511215544946" type="Const" version="opset1">
			<data offset="4" size="4" shape="" element_type="f32"/>
			<output>
				<port id="0" precision="FP32"/>
			</output>
		</layer>
		<layer id="4" name="164841648845003" type="Const" version="opset1">
			<data offset="8" size="4" shape="" element_type="f32"/>
			<output>
				<port id="0" precision="FP32"/>
			</output>
		</layer>
		<layer id="5" name="164851648946098" type="Const" version="opset1">
			<data offset="12" size="4" shape="" element_type="f32"/>
			<output>
				<port id="0" precision="FP32"/>
			</output>
		</layer>
		<layer id="6" name="164861649047205" type="Const" version="opset1">
			<data offset="8" size="4" shape="" element_type="f32"/>
			<output>
				<port id="0" precision="FP32"/>
			</output>
		</layer>
		<layer id="7" name="164871649144439" type="Const" version="opset1">
			<data offset="12" size="4" shape="" element_type="f32"/>
			<output>
				<port id="0" precision="FP32"/>
			</output>
		</layer>
		<layer id="8" name="Constant_5643334943695" type="Const" version="opset1">
			<data offset="16" size="8" shape="1" element_type="i64"/>
			<output>
				<port id="0" precision="I64">
					<dim>1</dim>
				</port>
			</output>
		</layer>
		<layer id="9" name="678334742822" type="Const" version="opset1">
			<data offset="24" size="24" shape="3" element_type="i64"/>
			<output>
				<port id="0" precision="I64" names="678">
					<dim>3</dim>
				</port>
			</output>
		</layer>
		<layer id="10" name="161141611843461" type="Const" version="opset1">
			<data offset="48" size="4" shape="" element_type="f32"/>
			<output>
				<port id="0" precision="FP32"/>
			</output>
		</layer>
		<layer id="11" name="161151611945654" type="Const" version="opset1">
			<data offset="52" size="4" shape="" element_type="f32"/>
			<output>
				<port id="0" precision="FP32"/>
			</output>
		</layer>
		<layer id="12" name="161161612043899" type="Const" version="opset1">
			<data offset="48" size="4" shape="" element_type="f32"/>
			<output>
				<port id="0" precision="FP32"/>
			</output>
		</layer>
		<layer id="13" name="161171612147937" type="Const" version="opset1">
			<data offset="52" size="4" shape="" element_type="f32"/>
			<output>
				<port id="0" precision="FP32"/>
			</output>
		</layer>
		<layer id="14" name="7895789747682" type="Const" version="opset1">
			<data offset="56" size="256" shape="1,64,1,1" element_type="f32"/>
			<output>
				<port id="0" precision="FP32">
					<dim>1</dim>
					<dim>64</dim>
					<dim>1</dim>
					<dim>1</dim>
				</port>
			</output>
		</layer>
		<layer id="15" name="124981250243734" type="Const" version="opset1">
			<data offset="0" size="4" shape="" element_type="f32"/>
			<output>
				<port id="0" precision="FP32"/>
			</output>
		</layer>
		<layer id="16" name="124991250346503" type="Const" version="opset1">
			<data offset="312" size="4" shape="" element_type="f32"/>
			<output>
				<port id="0" precision="FP32"/>
			</output>
		</layer>
		<layer id="17" name="125001250446626" type="Const" version="opset1">
			<data offset="0" size="4" shape="" element_type="f32"/>
			<output>
				<port id="0" precision="FP32"/>
			</output>
		</layer>
		<layer id="18" name="125011250547367" type="Const" version="opset1">
			<data offset="312" size="4" shape="" element_type="f32"/>
			<output>
				<port id="0" precision="FP32"/>
			</output>
		</layer>
		<layer id="19" name="164741647844661" type="Const" version="opset1">
			<data offset="316" size="4" shape="" element_type="f32"/>
			<output>
				<port id="0" precision="FP32"/>
			</output>
		</layer>
		<layer id="20" name="164751647944058" type="Const" version="opset1">
			<data offset="320" size="4" shape="" element_type="f32"/>
			<output>
				<port id="0" precision="FP32"/>
			</output>
		</layer>
		<layer id="21" name="164761648044877" type="Const" version="opset1">
			<data offset="316" size="4" shape="" element_type="f32"/>
			<output>
				<port id="0" precision="FP32"/>
			</output>
		</layer>
		<layer id="22" name="164771648148045" type="Const" version="opset1">
			<data offset="320" size="4" shape="" element_type="f32"/>
			<output>
				<port id="0" precision="FP32"/>
			</output>
		</layer>
		<layer id="23" name="Constant_5531333342285" type="Const" version="opset1">
			<data offset="16" size="8" shape="1" element_type="i64"/>
			<output>
				<port id="0" precision="I64">
					<dim>1</dim>
				</port>
			</output>
		</layer>
		<layer id="24" name="665333142948" type="Const" version="opset1">
			<data offset="24" size="24" shape="3" element_type="i64"/>
			<output>
				<port id="0" precision="I64" names="665">
					<dim>3</dim>
				</port>
			</output>
		</layer>
		<layer id="25" name="161041610844031" type="Const" version="opset1">
			<data offset="324" size="4" shape="" element_type="f32"/>
			<output>
				<port id="0" precision="FP32"/>
			</output>
		</layer>
		<layer id="26" name="161051610947889" type="Const" version="opset1">
			<data offset="328" size="4" shape="" element_type="f32"/>
			<output>
				<port id="0" precision="FP32"/>
			</output>
		</layer>
		<layer id="27" name="161061611045495" type="Const" version="opset1">
			<data offset="324" size="4" shape="" element_type="f32"/>
			<output>
				<port id="0" precision="FP32"/>
			</output>
		</layer>
		<layer id="28" name="161071611144250" type="Const" version="opset1">
			<data offset="328" size="4" shape="" element_type="f32"/>
			<output>
				<port id="0" precision="FP32"/>
			</output>
		</layer>
		<layer id="29" name="7891789342663" type="Const" version="opset1">
			<data offset="56" size="256" shape="1,64,1,1" element_type="f32"/>
			<output>
				<port id="0" precision="FP32">
					<dim>1</dim>
					<dim>64</dim>
					<dim>1</dim>
					<dim>1</dim>
				</port>
			</output>
		</layer>
		<layer id="30" name="123281233246953" type="Const" version="opset1">
			<data offset="0" size="4" shape="" element_type="f32"/>
			<output>
				<port id="0" precision="FP32"/>
			</output>
		</layer>
		<layer id="31" name="123291233346401" type="Const" version="opset1">
			<data offset="332" size="4" shape="" element_type="f32"/>
			<output>
				<port id="0" precision="FP32"/>
			</output>
		</layer>
		<layer id="32" name="123301233446623" type="Const" version="opset1">
			<data offset="0" size="4" shape="" element_type="f32"/>
			<output>
				<port id="0" precision="FP32"/>
			</output>
		</layer>
		<layer id="33" name="123311233547502" type="Const" version="opset1">
			<data offset="332" size="4" shape="" element_type="f32"/>
			<output>
				<port id="0" precision="FP32"/>
			</output>
		</layer>
		<layer id="34" name="164641646842813" type="Const" version="opset1">
			<data offset="336" size="4" shape="" element_type="f32"/>
			<output>
				<port id="0" precision="FP32"/>
			</output>
		</layer>
		<layer id="35" name="164651646943929" type="Const" version="opset1">
			<data offset="340" size="4" shape="" element_type="f32"/>
			<output>
				<port id="0" precision="FP32"/>
			</output>
		</layer>
		<layer id="36" name="164661647046836" type="Const" version="opset1">
			<data offset="336" size="4" shape="" element_type="f32"/>
			<output>
				<port id="0" precision="FP32"/>
			</output>
		</layer>
		<layer id="37" name="164671647144037" type="Const" version="opset1">
			<data offset="340" size="4" shape="" element_type="f32"/>
			<output>
				<port id="0" precision="FP32"/>
			</output>
		</layer>
		<layer id="38" name="Constant_5419331745870" type="Const" version="opset1">
			<data offset="16" size="8" shape="1" element_type="i64"/>
			<output>
				<port id="0" precision="I64">
					<dim>1</dim>
				</port>
			</output>
		</layer>
		<layer id="39" name="652331543008" type="Const" version="opset1">
			<data offset="24" size="24" shape="3" element_type="i64"/>
			<output>
				<port id="0" precision="I64" names="652">
					<dim>3</dim>
				</port>
			</output>
		</layer>
		<layer id="40" name="160941609847553" type="Const" version="opset1">
			<data offset="344" size="4" shape="" element_type="f32"/>
			<output>
				<port id="0" precision="FP32"/>
			</output>
		</layer>
		<layer id="41" name="160951609945903" type="Const" version="opset1">
			<data offset="348" size="4" shape="" element_type="f32"/>
			<output>
				<port id="0" precision="FP32"/>
			</output>
		</layer>
		<layer id="42" name="160961610047325" type="Const" version="opset1">
			<data offset="344" size="4" shape="" element_type="f32"/>
			<output>
				<port id="0" precision="FP32"/>
			</output>
		</layer>
		<layer id="43" name="160971610145069" type="Const" version="opset1">
			<data offset="348" size="4" shape="" element_type="f32"/>
			<output>
				<port id="0" precision="FP32"/>
			</output>
		</layer>
		<layer id="44" name="7887788943554" type="Const" version="opset1">
			<data offset="56" size="256" shape="1,64,1,1" element_type="f32"/>
			<output>
				<port id="0" precision="FP32">
					<dim>1</dim>
					<dim>64</dim>
					<dim>1</dim>
					<dim>1</dim>
				</port>
			</output>
		</layer>
		<layer id="45" name="112581126245204" type="Const" version="opset1">
			<data offset="0" size="4" shape="" element_type="f32"/>
			<output>
				<port id="0" precision="FP32"/>
			</output>
		</layer>
		<layer id="46" name="112591126346809" type="Const" version="opset1">
			<data offset="352" size="4" shape="" element_type="f32"/>
			<output>
				<port id="0" precision="FP32"/>
			</output>
		</layer>
		<layer id="47" name="112601126443635" type="Const" version="opset1">
			<data offset="0" size="4" shape="" element_type="f32"/>
			<output>
				<port id="0" precision="FP32"/>
			</output>
		</layer>
		<layer id="48" name="112611126547049" type="Const" version="opset1">
			<data offset="352" size="4" shape="" element_type="f32"/>
			<output>
				<port id="0" precision="FP32"/>
			</output>
		</layer>
		<layer id="49" name="164541645842714" type="Const" version="opset1">
			<data offset="356" size="4" shape="" element_type="f32"/>
			<output>
				<port id="0" precision="FP32"/>
			</output>
		</layer>
		<layer id="50" name="164551645944487" type="Const" version="opset1">
			<data offset="360" size="4" shape="" element_type="f32"/>
			<output>
				<port id="0" precision="FP32"/>
			</output>
		</layer>
		<layer id="51" name="164561646047364" type="Const" version="opset1">
			<data offset="356" size="4" shape="" element_type="f32"/>
			<output>
				<port id="0" precision="FP32"/>
			</output>
		</layer>
		<layer id="52" name="164571646144163" type="Const" version="opset1">
			<data offset="360" size="4" shape="" element_type="f32"/>
			<output>
				<port id="0" precision="FP32"/>
			</output>
		</layer>
		<layer id="53" name="Constant_5307330144304" type="Const" version="opset1">
			<data offset="16" size="8" shape="1" element_type="i64"/>
			<output>
				<port id="0" precision="I64">
					<dim>1</dim>
				</port>
			</output>
		</layer>
		<layer id="54" name="639329946086" type="Const" version="opset1">
			<data offset="24" size="24" shape="3" element_type="i64"/>
			<output>
				<port id="0" precision="I64" names="639">
					<dim>3</dim>
				</port>
			</output>
		</layer>
		<layer id="55" name="160841608843875" type="Const" version="opset1">
			<data offset="364" size="4" shape="" element_type="f32"/>
			<output>
				<port id="0" precision="FP32"/>
			</output>
		</layer>
		<layer id="56" name="160851608947940" type="Const" version="opset1">
			<data offset="368" size="4" shape="" element_type="f32"/>
			<output>
				<port id="0" precision="FP32"/>
			</output>
		</layer>
		<layer id="57" name="160861609043428" type="Const" version="opset1">
			<data offset="364" size="4" shape="" element_type="f32"/>
			<output>
				<port id="0" precision="FP32"/>
			</output>
		</layer>
		<layer id="58" name="160871609145762" type="Const" version="opset1">
			<data offset="368" size="4" shape="" element_type="f32"/>
			<output>
				<port id="0" precision="FP32"/>
			</output>
		</layer>
		<layer id="59" name="7883788545648" type="Const" version="opset1">
			<data offset="56" size="256" shape="1,64,1,1" element_type="f32"/>
			<output>
				<port id="0" precision="FP32">
					<dim>1</dim>
					<dim>64</dim>
					<dim>1</dim>
					<dim>1</dim>
				</port>
			</output>
		</layer>
		<layer id="60" name="121681217242741" type="Const" version="opset1">
			<data offset="372" size="4" shape="" element_type="f32"/>
			<output>
				<port id="0" precision="FP32"/>
			</output>
		</layer>
		<layer id="61" name="121691217347439" type="Const" version="opset1">
			<data offset="376" size="4" shape="" element_type="f32"/>
			<output>
				<port id="0" precision="FP32"/>
			</output>
		</layer>
		<layer id="62" name="121701217445282" type="Const" version="opset1">
			<data offset="372" size="4" shape="" element_type="f32"/>
			<output>
				<port id="0" precision="FP32"/>
			</output>
		</layer>
		<layer id="63" name="121711217544631" type="Const" version="opset1">
			<data offset="376" size="4" shape="" element_type="f32"/>
			<output>
				<port id="0" precision="FP32"/>
			</output>
		</layer>
		<layer id="64" name="130881309245384" type="Const" version="opset1">
			<data offset="380" size="4" shape="" element_type="f32"/>
			<output>
				<port id="0" precision="FP32"/>
			</output>
		</layer>
		<layer id="65" name="130891309347826" type="Const" version="opset1">
			<data offset="384" size="4" shape="" element_type="f32"/>
			<output>
				<port id="0" precision="FP32"/>
			</output>
		</layer>
		<layer id="66" name="130901309447868" type="Const" version="opset1">
			<data offset="380" size="4" shape="" element_type="f32"/>
			<output>
				<port id="0" precision="FP32"/>
			</output>
		</layer>
		<layer id="67" name="130911309543248" type="Const" version="opset1">
			<data offset="384" size="4" shape="" element_type="f32"/>
			<output>
				<port id="0" precision="FP32"/>
			</output>
		</layer>
		<layer id="68" name="105481055245519" type="Const" version="opset1">
			<data offset="388" size="4" shape="" element_type="f32"/>
			<output>
				<port id="0" precision="FP32"/>
			</output>
		</layer>
		<layer id="69" name="105491055344958" type="Const" version="opset1">
			<data offset="392" size="4" shape="" element_type="f32"/>
			<output>
				<port id="0" precision="FP32"/>
			</output>
		</layer>
		<layer id="70" name="105501055446728" type="Const" version="opset1">
			<data offset="388" size="4" shape="" element_type="f32"/>
			<output>
				<port id="0" precision="FP32"/>
			</output>
		</layer>
		<layer id="71" name="105511055546164" type="Const" version="opset1">
			<data offset="392" size="4" shape="" element_type="f32"/>
			<output>
				<port id="0" precision="FP32"/>
			</output>
		</layer>
		<layer id="72" name="133081331247373" type="Const" version="opset1">
			<data offset="396" size="4" shape="" element_type="f32"/>
			<output>
				<port id="0" precision="FP32"/>
			</output>
		</layer>
		<layer id="73" name="133091331345402" type="Const" version="opset1">
			<data offset="400" size="4" shape="" element_type="f32"/>
			<output>
				<port id="0" precision="FP32"/>
			</output>
		</layer>
		<layer id="74" name="133101331446389" type="Const" version="opset1">
			<data offset="396" size="4" shape="" element_type="f32"/>
			<output>
				<port id="0" precision="FP32"/>
			</output>
		</layer>
		<layer id="75" name="133111331547229" type="Const" version="opset1">
			<data offset="400" size="4" shape="" element_type="f32"/>
			<output>
				<port id="0" precision="FP32"/>
			</output>
		</layer>
		<layer id="76" name="133481335246104" type="Const" version="opset1">
			<data offset="404" size="4" shape="" element_type="f32"/>
			<output>
				<port id="0" precision="FP32"/>
			</output>
		</layer>
		<layer id="77" name="133491335347742" type="Const" version="opset1">
			<data offset="408" size="4" shape="" element_type="f32"/>
			<output>
				<port id="0" precision="FP32"/>
			</output>
		</layer>
		<layer id="78" name="133501335447523" type="Const" version="opset1">
			<data offset="404" size="4" shape="" element_type="f32"/>
			<output>
				<port id="0" precision="FP32"/>
			</output>
		</layer>
		<layer id="79" name="133511335542846" type="Const" version="opset1">
			<data offset="408" size="4" shape="" element_type="f32"/>
			<output>
				<port id="0" precision="FP32"/>
			</output>
		</layer>
		<layer id="80" name="117881179245381" type="Const" version="opset1">
			<data offset="0" size="4" shape="" element_type="f32"/>
			<output>
				<port id="0" precision="FP32"/>
			</output>
		</layer>
		<layer id="81" name="117891179345405" type="Const" version="opset1">
			<data offset="412" size="4" shape="" element_type="f32"/>
			<output>
				<port id="0" precision="FP32"/>
			</output>
		</layer>
		<layer id="82" name="117901179447337" type="Const" version="opset1">
			<data offset="0" size="4" shape="" element_type="f32"/>
			<output>
				<port id="0" precision="FP32"/>
			</output>
		</layer>
		<layer id="83" name="117911179544034" type="Const" version="opset1">
			<data offset="412" size="4" shape="" element_type="f32"/>
			<output>
				<port id="0" precision="FP32"/>
			</output>
		</layer>
		<layer id="84" name="120881209245822" type="Const" version="opset1">
			<data offset="416" size="768" shape="1,192,1,1" element_type="f32"/>
			<output>
				<port id="0" precision="FP32">
					<dim>1</dim>
					<dim>192</dim>
					<dim>1</dim>
					<dim>1</dim>
				</port>
			</output>
		</layer>
		<layer id="85" name="120891209343362" type="Const" version="opset1">
			<data offset="1184" size="768" shape="1,192,1,1" element_type="f32"/>
			<output>
				<port id="0" precision="FP32">
					<dim>1</dim>
					<dim>192</dim>
					<dim>1</dim>
					<dim>1</dim>
				</port>
			</output>
		</layer>
		<layer id="86" name="120901209447712" type="Const" version="opset1">
			<data offset="416" size="768" shape="1,192,1,1" element_type="f32"/>
			<output>
				<port id="0" precision="FP32">
					<dim>1</dim>
					<dim>192</dim>
					<dim>1</dim>
					<dim>1</dim>
				</port>
			</output>
		</layer>
		<layer id="87" name="120911209545255" type="Const" version="opset1">
			<data offset="1184" size="768" shape="1,192,1,1" element_type="f32"/>
			<output>
				<port id="0" precision="FP32">
					<dim>1</dim>
					<dim>192</dim>
					<dim>1</dim>
					<dim>1</dim>
				</port>
			</output>
		</layer>
		<layer id="88" name="133581336244889" type="Const" version="opset1">
			<data offset="1952" size="4" shape="" element_type="f32"/>
			<output>
				<port id="0" precision="FP32"/>
			</output>
		</layer>
		<layer id="89" name="133591336345879" type="Const" version="opset1">
			<data offset="1956" size="4" shape="" element_type="f32"/>
			<output>
				<port id="0" precision="FP32"/>
			</output>
		</layer>
		<layer id="90" name="133601336443755" type="Const" version="opset1">
			<data offset="1952" size="4" shape="" element_type="f32"/>
			<output>
				<port id="0" precision="FP32"/>
			</output>
		</layer>
		<layer id="91" name="133611336545888" type="Const" version="opset1">
			<data offset="1956" size="4" shape="" element_type="f32"/>
			<output>
				<port id="0" precision="FP32"/>
			</output>
		</layer>
		<layer id="92" name="105681057244751" type="Const" version="opset1">
			<data offset="1960" size="4" shape="" element_type="f32"/>
			<output>
				<port id="0" precision="FP32"/>
			</output>
		</layer>
		<layer id="93" name="105691057345906" type="Const" version="opset1">
			<data offset="1964" size="4" shape="" element_type="f32"/>
			<output>
				<port id="0" precision="FP32"/>
			</output>
		</layer>
		<layer id="94" name="105701057443068" type="Const" version="opset1">
			<data offset="1960" size="4" shape="" element_type="f32"/>
			<output>
				<port id="0" precision="FP32"/>
			</output>
		</layer>
		<layer id="95" name="105711057543107" type="Const" version="opset1">
			<data offset="1964" size="4" shape="" element_type="f32"/>
			<output>
				<port id="0" precision="FP32"/>
			</output>
		</layer>
		<layer id="96" name="127181272243518" type="Const" version="opset1">
			<data offset="0" size="4" shape="" element_type="f32"/>
			<output>
				<port id="0" precision="FP32"/>
			</output>
		</layer>
		<layer id="97" name="127191272346683" type="Const" version="opset1">
			<data offset="1968" size="4" shape="" element_type="f32"/>
			<output>
				<port id="0" precision="FP32"/>
			</output>
		</layer>
		<layer id="98" name="127201272448024" type="Const" version="opset1">
			<data offset="0" size="4" shape="" element_type="f32"/>
			<output>
				<port id="0" precision="FP32"/>
			</output>
		</layer>
		<layer id="99" name="127211272544280" type="Const" version="opset1">
			<data offset="1968" size="4" shape="" element_type="f32"/>
			<output>
				<port id="0" precision="FP32"/>
			</output>
		</layer>
		<layer id="100" name="114881149242258" type="Const" version="opset1">
			<data offset="416" size="768" shape="1,192,1,1" element_type="f32"/>
			<output>
				<port id="0" precision="FP32">
					<dim>1</dim>
					<dim>192</dim>
					<dim>1</dim>
					<dim>1</dim>
				</port>
			</output>
		</layer>
		<layer id="101" name="114891149345489" type="Const" version="opset1">
			<data offset="1972" size="768" shape="1,192,1,1" element_type="f32"/>
			<output>
				<port id="0" precision="FP32">
					<dim>1</dim>
					<dim>192</dim>
					<dim>1</dim>
					<dim>1</dim>
				</port>
			</output>
		</layer>
		<layer id="102" name="114901149443011" type="Const" version="opset1">
			<data offset="416" size="768" shape="1,192,1,1" element_type="f32"/>
			<output>
				<port id="0" precision="FP32">
					<dim>1</dim>
					<dim>192</dim>
					<dim>1</dim>
					<dim>1</dim>
				</port>
			</output>
		</layer>
		<layer id="103" name="114911149545957" type="Const" version="opset1">
			<data offset="1972" size="768" shape="1,192,1,1" element_type="f32"/>
			<output>
				<port id="0" precision="FP32">
					<dim>1</dim>
					<dim>192</dim>
					<dim>1</dim>
					<dim>1</dim>
				</port>
			</output>
		</layer>
		<layer id="104" name="105781058244472" type="Const" version="opset1">
			<data offset="2740" size="4" shape="" element_type="f32"/>
			<output>
				<port id="0" precision="FP32"/>
			</output>
		</layer>
		<layer id="105" name="105791058346350" type="Const" version="opset1">
			<data offset="2744" size="4" shape="" element_type="f32"/>
			<output>
				<port id="0" precision="FP32"/>
			</output>
		</layer>
		<layer id="106" name="105801058445012" type="Const" version="opset1">
			<data offset="2740" size="4" shape="" element_type="f32"/>
			<output>
				<port id="0" precision="FP32"/>
			</output>
		</layer>
		<layer id="107" name="105811058542351" type="Const" version="opset1">
			<data offset="2744" size="4" shape="" element_type="f32"/>
			<output>
				<port id="0" precision="FP32"/>
			</output>
		</layer>
		<layer id="108" name="129681297245492" type="Const" version="opset1">
			<data offset="0" size="4" shape="" element_type="f32"/>
			<output>
				<port id="0" precision="FP32"/>
			</output>
		</layer>
		<layer id="109" name="129691297347058" type="Const" version="opset1">
			<data offset="2748" size="4" shape="" element_type="f32"/>
			<output>
				<port id="0" precision="FP32"/>
			</output>
		</layer>
		<layer id="110" name="129701297446656" type="Const" version="opset1">
			<data offset="0" size="4" shape="" element_type="f32"/>
			<output>
				<port id="0" precision="FP32"/>
			</output>
		</layer>
		<layer id="111" name="129711297546797" type="Const" version="opset1">
			<data offset="2748" size="4" shape="" element_type="f32"/>
			<output>
				<port id="0" precision="FP32"/>
			</output>
		</layer>
		<layer id="112" name="106081061243659" type="Const" version="opset1">
			<data offset="2752" size="576" shape="1,144,1,1" element_type="f32"/>
			<output>
				<port id="0" precision="FP32">
					<dim>1</dim>
					<dim>144</dim>
					<dim>1</dim>
					<dim>1</dim>
				</port>
			</output>
		</layer>
		<layer id="113" name="106091061347094" type="Const" version="opset1">
			<data offset="3328" size="576" shape="1,144,1,1" element_type="f32"/>
			<output>
				<port id="0" precision="FP32">
					<dim>1</dim>
					<dim>144</dim>
					<dim>1</dim>
					<dim>1</dim>
				</port>
			</output>
		</layer>
		<layer id="114" name="106101061445933" type="Const" version="opset1">
			<data offset="2752" size="576" shape="1,144,1,1" element_type="f32"/>
			<output>
				<port id="0" precision="FP32">
					<dim>1</dim>
					<dim>144</dim>
					<dim>1</dim>
					<dim>1</dim>
				</port>
			</output>
		</layer>
		<layer id="115" name="106111061546002" type="Const" version="opset1">
			<data offset="3328" size="576" shape="1,144,1,1" element_type="f32"/>
			<output>
				<port id="0" precision="FP32">
					<dim>1</dim>
					<dim>144</dim>
					<dim>1</dim>
					<dim>1</dim>
				</port>
			</output>
		</layer>
		<layer id="116" name="126381264245249" type="Const" version="opset1">
			<data offset="3904" size="4" shape="" element_type="f32"/>
			<output>
				<port id="0" precision="FP32"/>
			</output>
		</layer>
		<layer id="117" name="126391264344589" type="Const" version="opset1">
			<data offset="3908" size="4" shape="" element_type="f32"/>
			<output>
				<port id="0" precision="FP32"/>
			</output>
		</layer>
		<layer id="118" name="126401264447619" type="Const" version="opset1">
			<data offset="3904" size="4" shape="" element_type="f32"/>
			<output>
				<port id="0" precision="FP32"/>
			</output>
		</layer>
		<layer id="119" name="126411264543023" type="Const" version="opset1">
			<data offset="3908" size="4" shape="" element_type="f32"/>
			<output>
				<port id="0" precision="FP32"/>
			</output>
		</layer>
		<layer id="120" name="105281053243188" type="Const" version="opset1">
			<data offset="3912" size="4" shape="" element_type="f32"/>
			<output>
				<port id="0" precision="FP32"/>
			</output>
		</layer>
		<layer id="121" name="105291053343227" type="Const" version="opset1">
			<data offset="3916" size="4" shape="" element_type="f32"/>
			<output>
				<port id="0" precision="FP32"/>
			</output>
		</layer>
		<layer id="122" name="105301053445408" type="Const" version="opset1">
			<data offset="3912" size="4" shape="" element_type="f32"/>
			<output>
				<port id="0" precision="FP32"/>
			</output>
		</layer>
		<layer id="123" name="105311053542954" type="Const" version="opset1">
			<data offset="3916" size="4" shape="" element_type="f32"/>
			<output>
				<port id="0" precision="FP32"/>
			</output>
		</layer>
		<layer id="124" name="120081201243914" type="Const" version="opset1">
			<data offset="0" size="4" shape="" element_type="f32"/>
			<output>
				<port id="0" precision="FP32"/>
			</output>
		</layer>
		<layer id="125" name="120091201344421" type="Const" version="opset1">
			<data offset="3920" size="4" shape="" element_type="f32"/>
			<output>
				<port id="0" precision="FP32"/>
			</output>
		</layer>
		<layer id="126" name="120101201447511" type="Const" version="opset1">
			<data offset="0" size="4" shape="" element_type="f32"/>
			<output>
				<port id="0" precision="FP32"/>
			</output>
		</layer>
		<layer id="127" name="120111201547841" type="Const" version="opset1">
			<data offset="3920" size="4" shape="" element_type="f32"/>
			<output>
				<port id="0" precision="FP32"/>
			</output>
		</layer>
		<layer id="128" name="130181302245792" type="Const" version="opset1">
			<data offset="2752" size="576" shape="1,144,1,1" element_type="f32"/>
			<output>
				<port id="0" precision="FP32">
					<dim>1</dim>
					<dim>144</dim>
					<dim>1</dim>
					<dim>1</dim>
				</port>
			</output>
		</layer>
		<layer id="129" name="130191302343488" type="Const" version="opset1">
			<data offset="3924" size="576" shape="1,144,1,1" element_type="f32"/>
			<output>
				<port id="0" precision="FP32">
					<dim>1</dim>
					<dim>144</dim>
					<dim>1</dim>
					<dim>1</dim>
				</port>
			</output>
		</layer>
		<layer id="130" name="130201302447724" type="Const" version="opset1">
			<data offset="2752" size="576" shape="1,144,1,1" element_type="f32"/>
			<output>
				<port id="0" precision="FP32">
					<dim>1</dim>
					<dim>144</dim>
					<dim>1</dim>
					<dim>1</dim>
				</port>
			</output>
		</layer>
		<layer id="131" name="130211302545369" type="Const" version="opset1">
			<data offset="3924" size="576" shape="1,144,1,1" element_type="f32"/>
			<output>
				<port id="0" precision="FP32">
					<dim>1</dim>
					<dim>144</dim>
					<dim>1</dim>
					<dim>1</dim>
				</port>
			</output>
		</layer>
		<layer id="132" name="105381054245969" type="Const" version="opset1">
			<data offset="4500" size="4" shape="" element_type="f32"/>
			<output>
				<port id="0" precision="FP32"/>
			</output>
		</layer>
		<layer id="133" name="105391054347424" type="Const" version="opset1">
			<data offset="4504" size="4" shape="" element_type="f32"/>
			<output>
				<port id="0" precision="FP32"/>
			</output>
		</layer>
		<layer id="134" name="105401054444970" type="Const" version="opset1">
			<data offset="4500" size="4" shape="" element_type="f32"/>
			<output>
				<port id="0" precision="FP32"/>
			</output>
		</layer>
		<layer id="135" name="105411054547430" type="Const" version="opset1">
			<data offset="4504" size="4" shape="" element_type="f32"/>
			<output>
				<port id="0" precision="FP32"/>
			</output>
		</layer>
		<layer id="136" name="109181092244583" type="Const" version="opset1">
			<data offset="0" size="4" shape="" element_type="f32"/>
			<output>
				<port id="0" precision="FP32"/>
			</output>
		</layer>
		<layer id="137" name="109191092346827" type="Const" version="opset1">
			<data offset="4508" size="4" shape="" element_type="f32"/>
			<output>
				<port id="0" precision="FP32"/>
			</output>
		</layer>
		<layer id="138" name="109201092442885" type="Const" version="opset1">
			<data offset="0" size="4" shape="" element_type="f32"/>
			<output>
				<port id="0" precision="FP32"/>
			</output>
		</layer>
		<layer id="139" name="109211092542933" type="Const" version="opset1">
			<data offset="4508" size="4" shape="" element_type="f32"/>
			<output>
				<port id="0" precision="FP32"/>
			</output>
		</layer>
		<layer id="140" name="126981270244469" type="Const" version="opset1">
			<data offset="4512" size="384" shape="1,96,1,1" element_type="f32"/>
			<output>
				<port id="0" precision="FP32">
					<dim>1</dim>
					<dim>96</dim>
					<dim>1</dim>
					<dim>1</dim>
				</port>
			</output>
		</layer>
		<layer id="141" name="126991270347865" type="Const" version="opset1">
			<data offset="4896" size="384" shape="1,96,1,1" element_type="f32"/>
			<output>
				<port id="0" precision="FP32">
					<dim>1</dim>
					<dim>96</dim>
					<dim>1</dim>
					<dim>1</dim>
				</port>
			</output>
		</layer>
		<layer id="142" name="127001270446794" type="Const" version="opset1">
			<data offset="4512" size="384" shape="1,96,1,1" element_type="f32"/>
			<output>
				<port id="0" precision="FP32">
					<dim>1</dim>
					<dim>96</dim>
					<dim>1</dim>
					<dim>1</dim>
				</port>
			</output>
		</layer>
		<layer id="143" name="127011270547835" type="Const" version="opset1">
			<data offset="4896" size="384" shape="1,96,1,1" element_type="f32"/>
			<output>
				<port id="0" precision="FP32">
					<dim>1</dim>
					<dim>96</dim>
					<dim>1</dim>
					<dim>1</dim>
				</port>
			</output>
		</layer>
		<layer id="144" name="116481165242696" type="Const" version="opset1">
			<data offset="5280" size="4" shape="" element_type="f32"/>
			<output>
				<port id="0" precision="FP32"/>
			</output>
		</layer>
		<layer id="145" name="116491165347328" type="Const" version="opset1">
			<data offset="5284" size="4" shape="" element_type="f32"/>
			<output>
				<port id="0" precision="FP32"/>
			</output>
		</layer>
		<layer id="146" name="116501165444244" type="Const" version="opset1">
			<data offset="5280" size="4" shape="" element_type="f32"/>
			<output>
				<port id="0" precision="FP32"/>
			</output>
		</layer>
		<layer id="147" name="116511165545018" type="Const" version="opset1">
			<data offset="5284" size="4" shape="" element_type="f32"/>
			<output>
				<port id="0" precision="FP32"/>
			</output>
		</layer>
		<layer id="148" name="111481115245678" type="Const" version="opset1">
			<data offset="0" size="4" shape="" element_type="f32"/>
			<output>
				<port id="0" precision="FP32"/>
			</output>
		</layer>
		<layer id="149" name="111491115343194" type="Const" version="opset1">
			<data offset="5288" size="4" shape="" element_type="f32"/>
			<output>
				<port id="0" precision="FP32"/>
			</output>
		</layer>
		<layer id="150" name="111501115444532" type="Const" version="opset1">
			<data offset="0" size="4" shape="" element_type="f32"/>
			<output>
				<port id="0" precision="FP32"/>
			</output>
		</layer>
		<layer id="151" name="111511115546101" type="Const" version="opset1">
			<data offset="5288" size="4" shape="" element_type="f32"/>
			<output>
				<port id="0" precision="FP32"/>
			</output>
		</layer>
		<layer id="152" name="107681077246890" type="Const" version="opset1">
			<data offset="5292" size="128" shape="1,32,1,1" element_type="f32"/>
			<output>
				<port id="0" precision="FP32">
					<dim>1</dim>
					<dim>32</dim>
					<dim>1</dim>
					<dim>1</dim>
				</port>
			</output>
		</layer>
		<layer id="153" name="107691077347751" type="Const" version="opset1">
			<data offset="5420" size="128" shape="1,32,1,1" element_type="f32"/>
			<output>
				<port id="0" precision="FP32">
					<dim>1</dim>
					<dim>32</dim>
					<dim>1</dim>
					<dim>1</dim>
				</port>
			</output>
		</layer>
		<layer id="154" name="107701077447604" type="Const" version="opset1">
			<data offset="5292" size="128" shape="1,32,1,1" element_type="f32"/>
			<output>
				<port id="0" precision="FP32">
					<dim>1</dim>
					<dim>32</dim>
					<dim>1</dim>
					<dim>1</dim>
				</port>
			</output>
		</layer>
		<layer id="155" name="107711077546032" type="Const" version="opset1">
			<data offset="5420" size="128" shape="1,32,1,1" element_type="f32"/>
			<output>
				<port id="0" precision="FP32">
					<dim>1</dim>
					<dim>32</dim>
					<dim>1</dim>
					<dim>1</dim>
				</port>
			</output>
		</layer>
		<layer id="156" name="114281143246956" type="Const" version="opset1">
			<data offset="0" size="4" shape="" element_type="f32"/>
			<output>
				<port id="0" precision="FP32"/>
			</output>
		</layer>
		<layer id="157" name="114291143342096" type="Const" version="opset1">
			<data offset="5548" size="4" shape="" element_type="f32"/>
			<output>
				<port id="0" precision="FP32"/>
			</output>
		</layer>
		<layer id="158" name="114301143444997" type="Const" version="opset1">
			<data offset="0" size="4" shape="" element_type="f32"/>
			<output>
				<port id="0" precision="FP32"/>
			</output>
		</layer>
		<layer id="159" name="114311143545930" type="Const" version="opset1">
			<data offset="5548" size="4" shape="" element_type="f32"/>
			<output>
				<port id="0" precision="FP32"/>
			</output>
		</layer>
		<layer id="160" name="130681307246293" type="Const" version="opset1">
			<data offset="0" size="4" shape="" element_type="f32"/>
			<output>
				<port id="0" precision="FP32"/>
			</output>
		</layer>
		<layer id="161" name="130691307346053" type="Const" version="opset1">
			<data offset="5552" size="4" shape="" element_type="f32"/>
			<output>
				<port id="0" precision="FP32"/>
			</output>
		</layer>
		<layer id="162" name="130701307446458" type="Const" version="opset1">
			<data offset="0" size="4" shape="" element_type="f32"/>
			<output>
				<port id="0" precision="FP32"/>
			</output>
		</layer>
		<layer id="163" name="130711307546311" type="Const" version="opset1">
			<data offset="5552" size="4" shape="" element_type="f32"/>
			<output>
				<port id="0" precision="FP32"/>
			</output>
		</layer>
		<layer id="165" name="Constant_47980287944568" type="Const" version="opset1">
			<data offset="5556" size="2" shape="1,1,1,1" element_type="f16"/>
			<output>
				<port id="0" precision="FP16">
					<dim>1</dim>
					<dim>1</dim>
					<dim>1</dim>
					<dim>1</dim>
				</port>
			</output>
		</layer>
		<layer id="166" name="Constant_47980287925859/restored_convert" type="Convert" version="opset1">
			<data destination_type="f32"/>
			<rt_info>
				<attribute name="decompression" version="0"/>
			</rt_info>
			<input>
				<port id="0">
					<dim>1</dim>
					<dim>1</dim>
					<dim>1</dim>
					<dim>1</dim>
				</port>
			</input>
			<output>
				<port id="1" precision="FP32">
					<dim>1</dim>
					<dim>1</dim>
					<dim>1</dim>
					<dim>1</dim>
				</port>
			</output>
		</layer>
		<layer id="167" name="Divide_14676" type="Multiply" version="opset1">
			<data auto_broadcast="numpy"/>
			<rt_info>
				<attribute name="preprocessing" version="0"/>
			</rt_info>
			<input>
				<port id="0">
					<dim>1</dim>
					<dim>3</dim>
					<dim>720</dim>
					<dim>1280</dim>
				</port>
				<port id="1">
					<dim>1</dim>
					<dim>1</dim>
					<dim>1</dim>
					<dim>1</dim>
				</port>
			</input>
			<output>
				<port id="2" precision="FP32">
					<dim>1</dim>
					<dim>3</dim>
					<dim>720</dim>
					<dim>1280</dim>
				</port>
			</output>
		</layer>
		<layer id="168" name="Conv_6/WithoutBiases/fq_input_0" type="FakeQuantize" version="opset1">
			<data levels="256" auto_broadcast="numpy"/>
			<input>
				<port id="0">
					<dim>1</dim>
					<dim>3</dim>
					<dim>720</dim>
					<dim>1280</dim>
				</port>
				<port id="1"/>
				<port id="2"/>
				<port id="3"/>
				<port id="4"/>
			</input>
			<output>
				<port id="5" precision="FP32">
					<dim>1</dim>
					<dim>3</dim>
					<dim>720</dim>
					<dim>1280</dim>
				</port>
			</output>
		</layer>
		<layer id="169" name="Conv_6/WithoutBiases/fq_weights_1/scale2901646227" type="Const" version="opset1">
			<data offset="5558" size="128" shape="32,1,1,1" element_type="f32"/>
			<output>
				<port id="0" precision="FP32">
					<dim>32</dim>
					<dim>1</dim>
					<dim>1</dim>
					<dim>1</dim>
				</port>
			</output>
		</layer>
		<layer id="170" name="Gather_47979288225860/restored_convert/quantized2900845303" type="Const" version="opset1">
			<data offset="5686" size="864" shape="32,3,3,3" element_type="i8"/>
			<output>
				<port id="0" precision="I8">
					<dim>32</dim>
					<dim>3</dim>
					<dim>3</dim>
					<dim>3</dim>
				</port>
			</output>
		</layer>
		<layer id="171" name="Gather_47979288225860/restored_convert/quantized/to_f32" type="Convert" version="opset1">
			<data destination_type="f32"/>
			<input>
				<port id="0">
					<dim>32</dim>
					<dim>3</dim>
					<dim>3</dim>
					<dim>3</dim>
				</port>
			</input>
			<output>
				<port id="1" precision="FP32">
					<dim>32</dim>
					<dim>3</dim>
					<dim>3</dim>
					<dim>3</dim>
				</port>
			</output>
		</layer>
		<layer id="172" name="Conv_6/WithoutBiases/fq_weights_1/mulpiply_by_scale" type="Multiply" version="opset1">
			<data auto_broadcast="numpy"/>
			<input>
				<port id="0">
					<dim>32</dim>
					<dim>3</dim>
					<dim>3</dim>
					<dim>3</dim>
				</port>
				<port id="1">
					<dim>32</dim>
					<dim>1</dim>
					<dim>1</dim>
					<dim>1</dim>
				</port>
			</input>
			<output>
				<port id="2" precision="FP32">
					<dim>32</dim>
					<dim>3</dim>
					<dim>3</dim>
					<dim>3</dim>
				</port>
			</output>
		</layer>
		<layer id="173" name="Conv_6/WithoutBiases" type="Convolution" version="opset1">
			<data auto_pad="explicit" strides="2,2" dilations="1,1" pads_begin="1,1" pads_end="1,1"/>
			<rt_info>
				<attribute name="preprocessing" version="0"/>
			</rt_info>
			<input>
				<port id="0">
					<dim>1</dim>
					<dim>3</dim>
					<dim>720</dim>
					<dim>1280</dim>
				</port>
				<port id="1">
					<dim>32</dim>
					<dim>3</dim>
					<dim>3</dim>
					<dim>3</dim>
				</port>
			</input>
			<output>
				<port id="2" precision="FP32">
					<dim>1</dim>
					<dim>32</dim>
					<dim>360</dim>
					<dim>640</dim>
				</port>
			</output>
		</layer>
		<layer id="174" name="Reshape_885288545834" type="Const" version="opset1">
			<data offset="6550" size="64" shape="1,32,1,1" element_type="f16"/>
			<output>
				<port id="0" precision="FP16">
					<dim>1</dim>
					<dim>32</dim>
					<dim>1</dim>
					<dim>1</dim>
				</port>
			</output>
		</layer>
		<layer id="175" name="Reshape_885288525861/restored_convert" type="Convert" version="opset1">
			<data destination_type="f32"/>
			<rt_info>
				<attribute name="decompression" version="0"/>
			</rt_info>
			<input>
				<port id="0">
					<dim>1</dim>
					<dim>32</dim>
					<dim>1</dim>
					<dim>1</dim>
				</port>
			</input>
			<output>
				<port id="1" precision="FP32">
					<dim>1</dim>
					<dim>32</dim>
					<dim>1</dim>
					<dim>1</dim>
				</port>
			</output>
		</layer>
		<layer id="176" name="Conv_6" type="Add" version="opset1">
			<data auto_broadcast="numpy"/>
			<input>
				<port id="0">
					<dim>1</dim>
					<dim>32</dim>
					<dim>360</dim>
					<dim>640</dim>
				</port>
				<port id="1">
					<dim>1</dim>
					<dim>32</dim>
					<dim>1</dim>
					<dim>1</dim>
				</port>
			</input>
			<output>
				<port id="2" precision="FP32" names="2796">
					<dim>1</dim>
					<dim>32</dim>
					<dim>360</dim>
					<dim>640</dim>
				</port>
			</output>
		</layer>
		<layer id="177" name="Clip_9" type="Clamp" version="opset1">
			<data max="6" min="0"/>
			<input>
				<port id="0">
					<dim>1</dim>
					<dim>32</dim>
					<dim>360</dim>
					<dim>640</dim>
				</port>
			</input>
			<output>
				<port id="1" precision="FP32" names="374">
					<dim>1</dim>
					<dim>32</dim>
					<dim>360</dim>
					<dim>640</dim>
				</port>
			</output>
		</layer>
		<layer id="178" name="Conv_10/WithoutBiases/fq_input_0" type="FakeQuantize" version="opset1">
			<data levels="256" auto_broadcast="numpy"/>
			<input>
				<port id="0">
					<dim>1</dim>
					<dim>32</dim>
					<dim>360</dim>
					<dim>640</dim>
				</port>
				<port id="1"/>
				<port id="2"/>
				<port id="3"/>
				<port id="4"/>
			</input>
			<output>
				<port id="5" precision="FP32">
					<dim>1</dim>
					<dim>32</dim>
					<dim>360</dim>
					<dim>640</dim>
				</port>
			</output>
		</layer>
		<layer id="179" name="Conv_10/WithoutBiases/fq_weights_1/scale3081647679" type="Const" version="opset1">
			<data offset="6614" size="128" shape="32,1,1,1" element_type="f32"/>
			<output>
				<port id="0" precision="FP32">
					<dim>32</dim>
					<dim>1</dim>
					<dim>1</dim>
					<dim>1</dim>
				</port>
			</output>
		</layer>
		<layer id="180" name="2800288925862/restored_convert/quantized3080843359" type="Const" version="opset1">
			<data offset="6742" size="1024" shape="32,32,1,1" element_type="i8"/>
			<output>
				<port id="0" precision="I8">
					<dim>32</dim>
					<dim>32</dim>
					<dim>1</dim>
					<dim>1</dim>
				</port>
			</output>
		</layer>
		<layer id="181" name="2800288925862/restored_convert/quantized/to_f32" type="Convert" version="opset1">
			<data destination_type="f32"/>
			<input>
				<port id="0">
					<dim>32</dim>
					<dim>32</dim>
					<dim>1</dim>
					<dim>1</dim>
				</port>
			</input>
			<output>
				<port id="1" precision="FP32">
					<dim>32</dim>
					<dim>32</dim>
					<dim>1</dim>
					<dim>1</dim>
				</port>
			</output>
		</layer>
		<layer id="182" name="Conv_10/WithoutBiases/fq_weights_1/mulpiply_by_scale" type="Multiply" version="opset1">
			<data auto_broadcast="numpy"/>
			<input>
				<port id="0">
					<dim>32</dim>
					<dim>32</dim>
					<dim>1</dim>
					<dim>1</dim>
				</port>
				<port id="1">
					<dim>32</dim>
					<dim>1</dim>
					<dim>1</dim>
					<dim>1</dim>
				</port>
			</input>
			<output>
				<port id="2" precision="FP32">
					<dim>32</dim>
					<dim>32</dim>
					<dim>1</dim>
					<dim>1</dim>
				</port>
			</output>
		</layer>
		<layer id="183" name="Conv_10/WithoutBiases" type="Convolution" version="opset1">
			<data auto_pad="explicit" strides="1,1" dilations="1,1" pads_begin="0,0" pads_end="0,0"/>
			<input>
				<port id="0">
					<dim>1</dim>
					<dim>32</dim>
					<dim>360</dim>
					<dim>640</dim>
				</port>
				<port id="1">
					<dim>32</dim>
					<dim>32</dim>
					<dim>1</dim>
					<dim>1</dim>
				</port>
			</input>
			<output>
				<port id="2" precision="FP32">
					<dim>1</dim>
					<dim>32</dim>
					<dim>360</dim>
					<dim>640</dim>
				</port>
			</output>
		</layer>
		<layer id="184" name="Reshape_935289242246" type="Const" version="opset1">
			<data offset="7766" size="64" shape="1,32,1,1" element_type="f16"/>
			<output>
				<port id="0" precision="FP16">
					<dim>1</dim>
					<dim>32</dim>
					<dim>1</dim>
					<dim>1</dim>
				</port>
			</output>
		</layer>
		<layer id="185" name="Reshape_935289225863/restored_convert" type="Convert" version="opset1">
			<data destination_type="f32"/>
			<rt_info>
				<attribute name="decompression" version="0"/>
			</rt_info>
			<input>
				<port id="0">
					<dim>1</dim>
					<dim>32</dim>
					<dim>1</dim>
					<dim>1</dim>
				</port>
			</input>
			<output>
				<port id="1" precision="FP32">
					<dim>1</dim>
					<dim>32</dim>
					<dim>1</dim>
					<dim>1</dim>
				</port>
			</output>
		</layer>
		<layer id="186" name="Conv_10" type="Add" version="opset1">
			<data auto_broadcast="numpy"/>
			<input>
				<port id="0">
					<dim>1</dim>
					<dim>32</dim>
					<dim>360</dim>
					<dim>640</dim>
				</port>
				<port id="1">
					<dim>1</dim>
					<dim>32</dim>
					<dim>1</dim>
					<dim>1</dim>
				</port>
			</input>
			<output>
				<port id="2" precision="FP32" names="2799">
					<dim>1</dim>
					<dim>32</dim>
					<dim>360</dim>
					<dim>640</dim>
				</port>
			</output>
		</layer>
		<layer id="187" name="Clip_13" type="Clamp" version="opset1">
			<data max="6" min="0"/>
			<input>
				<port id="0">
					<dim>1</dim>
					<dim>32</dim>
					<dim>360</dim>
					<dim>640</dim>
				</port>
			</input>
			<output>
				<port id="1" precision="FP32" names="379">
					<dim>1</dim>
					<dim>32</dim>
					<dim>360</dim>
					<dim>640</dim>
				</port>
			</output>
		</layer>
		<layer id="188" name="Conv_14/WithoutBiases/fq_input_0" type="FakeQuantize" version="opset1">
			<data levels="256" auto_broadcast="numpy"/>
			<input>
				<port id="0">
					<dim>1</dim>
					<dim>32</dim>
					<dim>360</dim>
					<dim>640</dim>
				</port>
				<port id="1">
					<dim>1</dim>
					<dim>32</dim>
					<dim>1</dim>
					<dim>1</dim>
				</port>
				<port id="2">
					<dim>1</dim>
					<dim>32</dim>
					<dim>1</dim>
					<dim>1</dim>
				</port>
				<port id="3">
					<dim>1</dim>
					<dim>32</dim>
					<dim>1</dim>
					<dim>1</dim>
				</port>
				<port id="4">
					<dim>1</dim>
					<dim>32</dim>
					<dim>1</dim>
					<dim>1</dim>
				</port>
			</input>
			<output>
				<port id="5" precision="FP32">
					<dim>1</dim>
					<dim>32</dim>
					<dim>360</dim>
					<dim>640</dim>
				</port>
			</output>
		</layer>
		<layer id="189" name="Conv_14/WithoutBiases/fq_weights_1/scale3075647382" type="Const" version="opset1">
			<data offset="7830" size="128" shape="32,1,1,1" element_type="f32"/>
			<output>
				<port id="0" precision="FP32">
					<dim>32</dim>
					<dim>1</dim>
					<dim>1</dim>
					<dim>1</dim>
				</port>
			</output>
		</layer>
		<layer id="190" name="Reshape_972289625864/restored_convert/quantized3074842402" type="Const" version="opset1">
			<data offset="7958" size="288" shape="32,1,3,3" element_type="i8"/>
			<output>
				<port id="0" precision="I8">
					<dim>32</dim>
					<dim>1</dim>
					<dim>3</dim>
					<dim>3</dim>
				</port>
			</output>
		</layer>
		<layer id="191" name="Reshape_972289625864/restored_convert/quantized/to_f32" type="Convert" version="opset1">
			<data destination_type="f32"/>
			<input>
				<port id="0">
					<dim>32</dim>
					<dim>1</dim>
					<dim>3</dim>
					<dim>3</dim>
				</port>
			</input>
			<output>
				<port id="1" precision="FP32">
					<dim>32</dim>
					<dim>1</dim>
					<dim>3</dim>
					<dim>3</dim>
				</port>
			</output>
		</layer>
		<layer id="192" name="Conv_14/WithoutBiases/fq_weights_1/mulpiply_by_scale" type="Multiply" version="opset1">
			<data auto_broadcast="numpy"/>
			<input>
				<port id="0">
					<dim>32</dim>
					<dim>1</dim>
					<dim>3</dim>
					<dim>3</dim>
				</port>
				<port id="1">
					<dim>32</dim>
					<dim>1</dim>
					<dim>1</dim>
					<dim>1</dim>
				</port>
			</input>
			<output>
				<port id="2" precision="FP32">
					<dim>32</dim>
					<dim>1</dim>
					<dim>3</dim>
					<dim>3</dim>
				</port>
			</output>
		</layer>
		<layer id="193" name="Conv_14/WithoutBiases/GOI_weights_part3780442924" type="Const" version="opset1">
			<data offset="8246" size="24" shape="3" element_type="i64"/>
			<output>
				<port id="0" precision="I64">
					<dim>3</dim>
				</port>
			</output>
		</layer>
		<layer id="194" name="Conv_14/WithoutBiases/WeightsShape" type="ShapeOf" version="opset3">
			<data output_type="i64"/>
			<input>
				<port id="0">
					<dim>32</dim>
					<dim>1</dim>
					<dim>3</dim>
					<dim>3</dim>
				</port>
			</input>
			<output>
				<port id="1" precision="I64">
					<dim>4</dim>
				</port>
			</output>
		</layer>
		<layer id="195" name="Conv_14/WithoutBiases/XY_weights_part_input_port_1/value3780047979" type="Const" version="opset1">
			<data offset="8270" size="16" shape="2" element_type="i64"/>
			<output>
				<port id="0" precision="I64">
					<dim>2</dim>
				</port>
			</output>
		</layer>
		<layer id="196" name="Conv_14/WithoutBiases/XY_weights_part_input_port_2/value3780243833" type="Const" version="opset1">
			<data offset="8286" size="8" shape="" element_type="i64"/>
			<output>
				<port id="0" precision="I64"/>
			</output>
		</layer>
		<layer id="197" name="Conv_14/WithoutBiases/XY_weights_part" type="Gather" version="opset8">
			<data batch_dims="0"/>
			<input>
				<port id="0">
					<dim>4</dim>
				</port>
				<port id="1">
					<dim>2</dim>
				</port>
				<port id="2"/>
			</input>
			<output>
				<port id="3" precision="I64">
					<dim>2</dim>
				</port>
			</output>
		</layer>
		<layer id="198" name="Conv_14/WithoutBiases/weights_shape" type="Concat" version="opset1">
			<data axis="0"/>
			<input>
				<port id="0">
					<dim>3</dim>
				</port>
				<port id="1">
					<dim>2</dim>
				</port>
			</input>
			<output>
				<port id="2" precision="I64">
					<dim>5</dim>
				</port>
			</output>
		</layer>
		<layer id="199" name="37806" type="Reshape" version="opset1">
			<data special_zero="true"/>
			<input>
				<port id="0">
					<dim>32</dim>
					<dim>1</dim>
					<dim>3</dim>
					<dim>3</dim>
				</port>
				<port id="1">
					<dim>5</dim>
				</port>
			</input>
			<output>
				<port id="2" precision="FP32">
					<dim>32</dim>
					<dim>1</dim>
					<dim>1</dim>
					<dim>3</dim>
					<dim>3</dim>
				</port>
			</output>
		</layer>
		<layer id="200" name="Conv_14/WithoutBiases" type="GroupConvolution" version="opset1">
			<data auto_pad="explicit" strides="1,1" dilations="1,1" pads_begin="1,1" pads_end="1,1"/>
			<input>
				<port id="0">
					<dim>1</dim>
					<dim>32</dim>
					<dim>360</dim>
					<dim>640</dim>
				</port>
				<port id="1">
					<dim>32</dim>
					<dim>1</dim>
					<dim>1</dim>
					<dim>3</dim>
					<dim>3</dim>
				</port>
			</input>
			<output>
				<port id="2" precision="FP32">
					<dim>1</dim>
					<dim>32</dim>
					<dim>360</dim>
					<dim>640</dim>
				</port>
			</output>
		</layer>
		<layer id="201" name="Reshape_1058289947613" type="Const" version="opset1">
			<data offset="8294" size="64" shape="1,32,1,1" element_type="f16"/>
			<output>
				<port id="0" precision="FP16">
					<dim>1</dim>
					<dim>32</dim>
					<dim>1</dim>
					<dim>1</dim>
				</port>
			</output>
		</layer>
		<layer id="202" name="Reshape_1058289925865/restored_convert" type="Convert" version="opset1">
			<data destination_type="f32"/>
			<rt_info>
				<attribute name="decompression" version="0"/>
			</rt_info>
			<input>
				<port id="0">
					<dim>1</dim>
					<dim>32</dim>
					<dim>1</dim>
					<dim>1</dim>
				</port>
			</input>
			<output>
				<port id="1" precision="FP32">
					<dim>1</dim>
					<dim>32</dim>
					<dim>1</dim>
					<dim>1</dim>
				</port>
			</output>
		</layer>
		<layer id="203" name="Conv_14" type="Add" version="opset1">
			<data auto_broadcast="numpy"/>
			<input>
				<port id="0">
					<dim>1</dim>
					<dim>32</dim>
					<dim>360</dim>
					<dim>640</dim>
				</port>
				<port id="1">
					<dim>1</dim>
					<dim>32</dim>
					<dim>1</dim>
					<dim>1</dim>
				</port>
			</input>
			<output>
				<port id="2" precision="FP32" names="2802">
					<dim>1</dim>
					<dim>32</dim>
					<dim>360</dim>
					<dim>640</dim>
				</port>
			</output>
		</layer>
		<layer id="204" name="Clip_17" type="Clamp" version="opset1">
			<data max="6" min="0"/>
			<input>
				<port id="0">
					<dim>1</dim>
					<dim>32</dim>
					<dim>360</dim>
					<dim>640</dim>
				</port>
			</input>
			<output>
				<port id="1" precision="FP32" names="384">
					<dim>1</dim>
					<dim>32</dim>
					<dim>360</dim>
					<dim>640</dim>
				</port>
			</output>
		</layer>
		<layer id="205" name="Conv_18/WithoutBiases/fq_input_0" type="FakeQuantize" version="opset1">
			<data levels="256" auto_broadcast="numpy"/>
			<input>
				<port id="0">
					<dim>1</dim>
					<dim>32</dim>
					<dim>360</dim>
					<dim>640</dim>
				</port>
				<port id="1"/>
				<port id="2"/>
				<port id="3"/>
				<port id="4"/>
			</input>
			<output>
				<port id="5" precision="FP32">
					<dim>1</dim>
					<dim>32</dim>
					<dim>360</dim>
					<dim>640</dim>
				</port>
			</output>
		</layer>
		<layer id="206" name="Conv_18/WithoutBiases/fq_weights_1/scale2973647448" type="Const" version="opset1">
			<data offset="8358" size="64" shape="16,1,1,1" element_type="f32"/>
			<output>
				<port id="0" precision="FP32">
					<dim>16</dim>
					<dim>1</dim>
					<dim>1</dim>
					<dim>1</dim>
				</port>
			</output>
		</layer>
		<layer id="207" name="2806290325866/restored_convert/quantized2972844220" type="Const" version="opset1">
			<data offset="8422" size="512" shape="16,32,1,1" element_type="i8"/>
			<output>
				<port id="0" precision="I8">
					<dim>16</dim>
					<dim>32</dim>
					<dim>1</dim>
					<dim>1</dim>
				</port>
			</output>
		</layer>
		<layer id="208" name="2806290325866/restored_convert/quantized/to_f32" type="Convert" version="opset1">
			<data destination_type="f32"/>
			<input>
				<port id="0">
					<dim>16</dim>
					<dim>32</dim>
					<dim>1</dim>
					<dim>1</dim>
				</port>
			</input>
			<output>
				<port id="1" precision="FP32">
					<dim>16</dim>
					<dim>32</dim>
					<dim>1</dim>
					<dim>1</dim>
				</port>
			</output>
		</layer>
		<layer id="209" name="Conv_18/WithoutBiases/fq_weights_1/mulpiply_by_scale" type="Multiply" version="opset1">
			<data auto_broadcast="numpy"/>
			<input>
				<port id="0">
					<dim>16</dim>
					<dim>32</dim>
					<dim>1</dim>
					<dim>1</dim>
				</port>
				<port id="1">
					<dim>16</dim>
					<dim>1</dim>
					<dim>1</dim>
					<dim>1</dim>
				</port>
			</input>
			<output>
				<port id="2" precision="FP32">
					<dim>16</dim>
					<dim>32</dim>
					<dim>1</dim>
					<dim>1</dim>
				</port>
			</output>
		</layer>
		<layer id="210" name="Conv_18/WithoutBiases" type="Convolution" version="opset1">
			<data auto_pad="explicit" strides="1,1" dilations="1,1" pads_begin="0,0" pads_end="0,0"/>
			<input>
				<port id="0">
					<dim>1</dim>
					<dim>32</dim>
					<dim>360</dim>
					<dim>640</dim>
				</port>
				<port id="1">
					<dim>16</dim>
					<dim>32</dim>
					<dim>1</dim>
					<dim>1</dim>
				</port>
			</input>
			<output>
				<port id="2" precision="FP32">
					<dim>1</dim>
					<dim>16</dim>
					<dim>360</dim>
					<dim>640</dim>
				</port>
			</output>
		</layer>
		<layer id="211" name="Reshape_1108290647970" type="Const" version="opset1">
			<data offset="8934" size="32" shape="1,16,1,1" element_type="f16"/>
			<output>
				<port id="0" precision="FP16">
					<dim>1</dim>
					<dim>16</dim>
					<dim>1</dim>
					<dim>1</dim>
				</port>
			</output>
		</layer>
		<layer id="212" name="Reshape_1108290625867/restored_convert" type="Convert" version="opset1">
			<data destination_type="f32"/>
			<rt_info>
				<attribute name="decompression" version="0"/>
			</rt_info>
			<input>
				<port id="0">
					<dim>1</dim>
					<dim>16</dim>
					<dim>1</dim>
					<dim>1</dim>
				</port>
			</input>
			<output>
				<port id="1" precision="FP32">
					<dim>1</dim>
					<dim>16</dim>
					<dim>1</dim>
					<dim>1</dim>
				</port>
			</output>
		</layer>
		<layer id="213" name="Conv_18" type="Add" version="opset1">
			<data auto_broadcast="numpy"/>
			<input>
				<port id="0">
					<dim>1</dim>
					<dim>16</dim>
					<dim>360</dim>
					<dim>640</dim>
				</port>
				<port id="1">
					<dim>1</dim>
					<dim>16</dim>
					<dim>1</dim>
					<dim>1</dim>
				</port>
			</input>
			<output>
				<port id="2" precision="FP32" names="2805">
					<dim>1</dim>
					<dim>16</dim>
					<dim>360</dim>
					<dim>640</dim>
				</port>
			</output>
		</layer>
		<layer id="214" name="Conv_19/WithoutBiases/fq_input_0" type="FakeQuantize" version="opset1">
			<data levels="256" auto_broadcast="numpy"/>
			<input>
				<port id="0">
					<dim>1</dim>
					<dim>16</dim>
					<dim>360</dim>
					<dim>640</dim>
				</port>
				<port id="1"/>
				<port id="2"/>
				<port id="3"/>
				<port id="4"/>
			</input>
			<output>
				<port id="5" precision="FP32">
					<dim>1</dim>
					<dim>16</dim>
					<dim>360</dim>
					<dim>640</dim>
				</port>
			</output>
		</layer>
		<layer id="215" name="Conv_19/WithoutBiases/fq_weights_1/scale3003646887" type="Const" version="opset1">
			<data offset="8966" size="384" shape="96,1,1,1" element_type="f32"/>
			<output>
				<port id="0" precision="FP32">
					<dim>96</dim>
					<dim>1</dim>
					<dim>1</dim>
					<dim>1</dim>
				</port>
			</output>
		</layer>
		<layer id="216" name="2809290925868/restored_convert/quantized3002846908" type="Const" version="opset1">
			<data offset="9350" size="1536" shape="96,16,1,1" element_type="i8"/>
			<output>
				<port id="0" precision="I8">
					<dim>96</dim>
					<dim>16</dim>
					<dim>1</dim>
					<dim>1</dim>
				</port>
			</output>
		</layer>
		<layer id="217" name="2809290925868/restored_convert/quantized/to_f32" type="Convert" version="opset1">
			<data destination_type="f32"/>
			<input>
				<port id="0">
					<dim>96</dim>
					<dim>16</dim>
					<dim>1</dim>
					<dim>1</dim>
				</port>
			</input>
			<output>
				<port id="1" precision="FP32">
					<dim>96</dim>
					<dim>16</dim>
					<dim>1</dim>
					<dim>1</dim>
				</port>
			</output>
		</layer>
		<layer id="218" name="Conv_19/WithoutBiases/fq_weights_1/mulpiply_by_scale" type="Multiply" version="opset1">
			<data auto_broadcast="numpy"/>
			<input>
				<port id="0">
					<dim>96</dim>
					<dim>16</dim>
					<dim>1</dim>
					<dim>1</dim>
				</port>
				<port id="1">
					<dim>96</dim>
					<dim>1</dim>
					<dim>1</dim>
					<dim>1</dim>
				</port>
			</input>
			<output>
				<port id="2" precision="FP32">
					<dim>96</dim>
					<dim>16</dim>
					<dim>1</dim>
					<dim>1</dim>
				</port>
			</output>
		</layer>
		<layer id="219" name="Conv_19/WithoutBiases" type="Convolution" version="opset1">
			<data auto_pad="explicit" strides="1,1" dilations="1,1" pads_begin="0,0" pads_end="0,0"/>
			<input>
				<port id="0">
					<dim>1</dim>
					<dim>16</dim>
					<dim>360</dim>
					<dim>640</dim>
				</port>
				<port id="1">
					<dim>96</dim>
					<dim>16</dim>
					<dim>1</dim>
					<dim>1</dim>
				</port>
			</input>
			<output>
				<port id="2" precision="FP32">
					<dim>1</dim>
					<dim>96</dim>
					<dim>360</dim>
					<dim>640</dim>
				</port>
			</output>
		</layer>
		<layer id="220" name="Reshape_1156291243254" type="Const" version="opset1">
			<data offset="10886" size="192" shape="1,96,1,1" element_type="f16"/>
			<output>
				<port id="0" precision="FP16">
					<dim>1</dim>
					<dim>96</dim>
					<dim>1</dim>
					<dim>1</dim>
				</port>
			</output>
		</layer>
		<layer id="221" name="Reshape_1156291225869/restored_convert" type="Convert" version="opset1">
			<data destination_type="f32"/>
			<rt_info>
				<attribute name="decompression" version="0"/>
			</rt_info>
			<input>
				<port id="0">
					<dim>1</dim>
					<dim>96</dim>
					<dim>1</dim>
					<dim>1</dim>
				</port>
			</input>
			<output>
				<port id="1" precision="FP32">
					<dim>1</dim>
					<dim>96</dim>
					<dim>1</dim>
					<dim>1</dim>
				</port>
			</output>
		</layer>
		<layer id="222" name="Conv_19" type="Add" version="opset1">
			<data auto_broadcast="numpy"/>
			<input>
				<port id="0">
					<dim>1</dim>
					<dim>96</dim>
					<dim>360</dim>
					<dim>640</dim>
				</port>
				<port id="1">
					<dim>1</dim>
					<dim>96</dim>
					<dim>1</dim>
					<dim>1</dim>
				</port>
			</input>
			<output>
				<port id="2" precision="FP32" names="2808">
					<dim>1</dim>
					<dim>96</dim>
					<dim>360</dim>
					<dim>640</dim>
				</port>
			</output>
		</layer>
		<layer id="223" name="Clip_22" type="Clamp" version="opset1">
			<data max="6" min="0"/>
			<input>
				<port id="0">
					<dim>1</dim>
					<dim>96</dim>
					<dim>360</dim>
					<dim>640</dim>
				</port>
			</input>
			<output>
				<port id="1" precision="FP32" names="391">
					<dim>1</dim>
					<dim>96</dim>
					<dim>360</dim>
					<dim>640</dim>
				</port>
			</output>
		</layer>
		<layer id="224" name="Conv_23/WithoutBiases/fq_input_0" type="FakeQuantize" version="opset1">
			<data levels="256" auto_broadcast="numpy"/>
			<input>
				<port id="0">
					<dim>1</dim>
					<dim>96</dim>
					<dim>360</dim>
					<dim>640</dim>
				</port>
				<port id="1">
					<dim>1</dim>
					<dim>96</dim>
					<dim>1</dim>
					<dim>1</dim>
				</port>
				<port id="2">
					<dim>1</dim>
					<dim>96</dim>
					<dim>1</dim>
					<dim>1</dim>
				</port>
				<port id="3">
					<dim>1</dim>
					<dim>96</dim>
					<dim>1</dim>
					<dim>1</dim>
				</port>
				<port id="4">
					<dim>1</dim>
					<dim>96</dim>
					<dim>1</dim>
					<dim>1</dim>
				</port>
			</input>
			<output>
				<port id="5" precision="FP32">
					<dim>1</dim>
					<dim>96</dim>
					<dim>360</dim>
					<dim>640</dim>
				</port>
			</output>
		</layer>
		<layer id="225" name="Conv_23/WithoutBiases/fq_weights_1/scale2961643287" type="Const" version="opset1">
			<data offset="11078" size="384" shape="96,1,1,1" element_type="f32"/>
			<output>
				<port id="0" precision="FP32">
					<dim>96</dim>
					<dim>1</dim>
					<dim>1</dim>
					<dim>1</dim>
				</port>
			</output>
		</layer>
		<layer id="226" name="Reshape_1193291625870/restored_convert/quantized2960844577" type="Const" version="opset1">
			<data offset="11462" size="864" shape="96,1,3,3" element_type="i8"/>
			<output>
				<port id="0" precision="I8">
					<dim>96</dim>
					<dim>1</dim>
					<dim>3</dim>
					<dim>3</dim>
				</port>
			</output>
		</layer>
		<layer id="227" name="Reshape_1193291625870/restored_convert/quantized/to_f32" type="Convert" version="opset1">
			<data destination_type="f32"/>
			<input>
				<port id="0">
					<dim>96</dim>
					<dim>1</dim>
					<dim>3</dim>
					<dim>3</dim>
				</port>
			</input>
			<output>
				<port id="1" precision="FP32">
					<dim>96</dim>
					<dim>1</dim>
					<dim>3</dim>
					<dim>3</dim>
				</port>
			</output>
		</layer>
		<layer id="228" name="Conv_23/WithoutBiases/fq_weights_1/mulpiply_by_scale" type="Multiply" version="opset1">
			<data auto_broadcast="numpy"/>
			<input>
				<port id="0">
					<dim>96</dim>
					<dim>1</dim>
					<dim>3</dim>
					<dim>3</dim>
				</port>
				<port id="1">
					<dim>96</dim>
					<dim>1</dim>
					<dim>1</dim>
					<dim>1</dim>
				</port>
			</input>
			<output>
				<port id="2" precision="FP32">
					<dim>96</dim>
					<dim>1</dim>
					<dim>3</dim>
					<dim>3</dim>
				</port>
			</output>
		</layer>
		<layer id="229" name="Conv_23/WithoutBiases/GOI_weights_part3781847388" type="Const" version="opset1">
			<data offset="12326" size="24" shape="3" element_type="i64"/>
			<output>
				<port id="0" precision="I64">
					<dim>3</dim>
				</port>
			</output>
		</layer>
		<layer id="230" name="Conv_23/WithoutBiases/WeightsShape" type="ShapeOf" version="opset3">
			<data output_type="i64"/>
			<input>
				<port id="0">
					<dim>96</dim>
					<dim>1</dim>
					<dim>3</dim>
					<dim>3</dim>
				</port>
			</input>
			<output>
				<port id="1" precision="I64">
					<dim>4</dim>
				</port>
			</output>
		</layer>
		<layer id="231" name="Conv_23/WithoutBiases/XY_weights_part_input_port_1/value3781445807" type="Const" version="opset1">
			<data offset="8270" size="16" shape="2" element_type="i64"/>
			<output>
				<port id="0" precision="I64">
					<dim>2</dim>
				</port>
			</output>
		</layer>
		<layer id="232" name="Conv_23/WithoutBiases/XY_weights_part_input_port_2/value3781644952" type="Const" version="opset1">
			<data offset="8286" size="8" shape="" element_type="i64"/>
			<output>
				<port id="0" precision="I64"/>
			</output>
		</layer>
		<layer id="233" name="Conv_23/WithoutBiases/XY_weights_part" type="Gather" version="opset8">
			<data batch_dims="0"/>
			<input>
				<port id="0">
					<dim>4</dim>
				</port>
				<port id="1">
					<dim>2</dim>
				</port>
				<port id="2"/>
			</input>
			<output>
				<port id="3" precision="I64">
					<dim>2</dim>
				</port>
			</output>
		</layer>
		<layer id="234" name="Conv_23/WithoutBiases/weights_shape" type="Concat" version="opset1">
			<data axis="0"/>
			<input>
				<port id="0">
					<dim>3</dim>
				</port>
				<port id="1">
					<dim>2</dim>
				</port>
			</input>
			<output>
				<port id="2" precision="I64">
					<dim>5</dim>
				</port>
			</output>
		</layer>
		<layer id="235" name="37820" type="Reshape" version="opset1">
			<data special_zero="true"/>
			<input>
				<port id="0">
					<dim>96</dim>
					<dim>1</dim>
					<dim>3</dim>
					<dim>3</dim>
				</port>
				<port id="1">
					<dim>5</dim>
				</port>
			</input>
			<output>
				<port id="2" precision="FP32">
					<dim>96</dim>
					<dim>1</dim>
					<dim>1</dim>
					<dim>3</dim>
					<dim>3</dim>
				</port>
			</output>
		</layer>
		<layer id="236" name="Conv_23/WithoutBiases" type="GroupConvolution" version="opset1">
			<data auto_pad="explicit" strides="2,2" dilations="1,1" pads_begin="1,1" pads_end="1,1"/>
			<input>
				<port id="0">
					<dim>1</dim>
					<dim>96</dim>
					<dim>360</dim>
					<dim>640</dim>
				</port>
				<port id="1">
					<dim>96</dim>
					<dim>1</dim>
					<dim>1</dim>
					<dim>3</dim>
					<dim>3</dim>
				</port>
			</input>
			<output>
				<port id="2" precision="FP32">
					<dim>1</dim>
					<dim>96</dim>
					<dim>180</dim>
					<dim>320</dim>
				</port>
			</output>
		</layer>
		<layer id="237" name="Reshape_1279291947493" type="Const" version="opset1">
			<data offset="12350" size="192" shape="1,96,1,1" element_type="f16"/>
			<output>
				<port id="0" precision="FP16">
					<dim>1</dim>
					<dim>96</dim>
					<dim>1</dim>
					<dim>1</dim>
				</port>
			</output>
		</layer>
		<layer id="238" name="Reshape_1279291925871/restored_convert" type="Convert" version="opset1">
			<data destination_type="f32"/>
			<rt_info>
				<attribute name="decompression" version="0"/>
			</rt_info>
			<input>
				<port id="0">
					<dim>1</dim>
					<dim>96</dim>
					<dim>1</dim>
					<dim>1</dim>
				</port>
			</input>
			<output>
				<port id="1" precision="FP32">
					<dim>1</dim>
					<dim>96</dim>
					<dim>1</dim>
					<dim>1</dim>
				</port>
			</output>
		</layer>
		<layer id="239" name="Conv_23" type="Add" version="opset1">
			<data auto_broadcast="numpy"/>
			<input>
				<port id="0">
					<dim>1</dim>
					<dim>96</dim>
					<dim>180</dim>
					<dim>320</dim>
				</port>
				<port id="1">
					<dim>1</dim>
					<dim>96</dim>
					<dim>1</dim>
					<dim>1</dim>
				</port>
			</input>
			<output>
				<port id="2" precision="FP32" names="2811">
					<dim>1</dim>
					<dim>96</dim>
					<dim>180</dim>
					<dim>320</dim>
				</port>
			</output>
		</layer>
		<layer id="240" name="Clip_26" type="Clamp" version="opset1">
			<data max="6" min="0"/>
			<input>
				<port id="0">
					<dim>1</dim>
					<dim>96</dim>
					<dim>180</dim>
					<dim>320</dim>
				</port>
			</input>
			<output>
				<port id="1" precision="FP32" names="396">
					<dim>1</dim>
					<dim>96</dim>
					<dim>180</dim>
					<dim>320</dim>
				</port>
			</output>
		</layer>
		<layer id="241" name="Conv_27/WithoutBiases/fq_input_0" type="FakeQuantize" version="opset1">
			<data levels="256" auto_broadcast="numpy"/>
			<input>
				<port id="0">
					<dim>1</dim>
					<dim>96</dim>
					<dim>180</dim>
					<dim>320</dim>
				</port>
				<port id="1"/>
				<port id="2"/>
				<port id="3"/>
				<port id="4"/>
			</input>
			<output>
				<port id="5" precision="FP32">
					<dim>1</dim>
					<dim>96</dim>
					<dim>180</dim>
					<dim>320</dim>
				</port>
			</output>
		</layer>
		<layer id="242" name="Conv_27/WithoutBiases/fq_weights_1/scale3060643908" type="Const" version="opset1">
			<data offset="12542" size="96" shape="24,1,1,1" element_type="f32"/>
			<output>
				<port id="0" precision="FP32">
					<dim>24</dim>
					<dim>1</dim>
					<dim>1</dim>
					<dim>1</dim>
				</port>
			</output>
		</layer>
		<layer id="243" name="2815292325872/restored_convert/quantized3059845090" type="Const" version="opset1">
			<data offset="12638" size="2304" shape="24,96,1,1" element_type="i8"/>
			<output>
				<port id="0" precision="I8">
					<dim>24</dim>
					<dim>96</dim>
					<dim>1</dim>
					<dim>1</dim>
				</port>
			</output>
		</layer>
		<layer id="244" name="2815292325872/restored_convert/quantized/to_f32" type="Convert" version="opset1">
			<data destination_type="f32"/>
			<input>
				<port id="0">
					<dim>24</dim>
					<dim>96</dim>
					<dim>1</dim>
					<dim>1</dim>
				</port>
			</input>
			<output>
				<port id="1" precision="FP32">
					<dim>24</dim>
					<dim>96</dim>
					<dim>1</dim>
					<dim>1</dim>
				</port>
			</output>
		</layer>
		<layer id="245" name="Conv_27/WithoutBiases/fq_weights_1/mulpiply_by_scale" type="Multiply" version="opset1">
			<data auto_broadcast="numpy"/>
			<input>
				<port id="0">
					<dim>24</dim>
					<dim>96</dim>
					<dim>1</dim>
					<dim>1</dim>
				</port>
				<port id="1">
					<dim>24</dim>
					<dim>1</dim>
					<dim>1</dim>
					<dim>1</dim>
				</port>
			</input>
			<output>
				<port id="2" precision="FP32">
					<dim>24</dim>
					<dim>96</dim>
					<dim>1</dim>
					<dim>1</dim>
				</port>
			</output>
		</layer>
		<layer id="246" name="Conv_27/WithoutBiases" type="Convolution" version="opset1">
			<data auto_pad="explicit" strides="1,1" dilations="1,1" pads_begin="0,0" pads_end="0,0"/>
			<input>
				<port id="0">
					<dim>1</dim>
					<dim>96</dim>
					<dim>180</dim>
					<dim>320</dim>
				</port>
				<port id="1">
					<dim>24</dim>
					<dim>96</dim>
					<dim>1</dim>
					<dim>1</dim>
				</port>
			</input>
			<output>
				<port id="2" precision="FP32">
					<dim>1</dim>
					<dim>24</dim>
					<dim>180</dim>
					<dim>320</dim>
				</port>
			</output>
		</layer>
		<layer id="247" name="Reshape_1329292648006" type="Const" version="opset1">
			<data offset="14942" size="48" shape="1,24,1,1" element_type="f16"/>
			<output>
				<port id="0" precision="FP16">
					<dim>1</dim>
					<dim>24</dim>
					<dim>1</dim>
					<dim>1</dim>
				</port>
			</output>
		</layer>
		<layer id="248" name="Reshape_1329292625873/restored_convert" type="Convert" version="opset1">
			<data destination_type="f32"/>
			<rt_info>
				<attribute name="decompression" version="0"/>
			</rt_info>
			<input>
				<port id="0">
					<dim>1</dim>
					<dim>24</dim>
					<dim>1</dim>
					<dim>1</dim>
				</port>
			</input>
			<output>
				<port id="1" precision="FP32">
					<dim>1</dim>
					<dim>24</dim>
					<dim>1</dim>
					<dim>1</dim>
				</port>
			</output>
		</layer>
		<layer id="249" name="Conv_27" type="Add" version="opset1">
			<data auto_broadcast="numpy"/>
			<input>
				<port id="0">
					<dim>1</dim>
					<dim>24</dim>
					<dim>180</dim>
					<dim>320</dim>
				</port>
				<port id="1">
					<dim>1</dim>
					<dim>24</dim>
					<dim>1</dim>
					<dim>1</dim>
				</port>
			</input>
			<output>
				<port id="2" precision="FP32" names="2814">
					<dim>1</dim>
					<dim>24</dim>
					<dim>180</dim>
					<dim>320</dim>
				</port>
			</output>
		</layer>
		<layer id="250" name="Add_37/fq_input_1" type="FakeQuantize" version="opset1">
			<data levels="256" auto_broadcast="numpy"/>
			<input>
				<port id="0">
					<dim>1</dim>
					<dim>24</dim>
					<dim>180</dim>
					<dim>320</dim>
				</port>
				<port id="1"/>
				<port id="2"/>
				<port id="3"/>
				<port id="4"/>
			</input>
			<output>
				<port id="5" precision="FP32">
					<dim>1</dim>
					<dim>24</dim>
					<dim>180</dim>
					<dim>320</dim>
				</port>
			</output>
		</layer>
		<layer id="251" name="Conv_28/WithoutBiases/fq_weights_1/scale2988642987" type="Const" version="opset1">
			<data offset="14990" size="576" shape="144,1,1,1" element_type="f32"/>
			<output>
				<port id="0" precision="FP32">
					<dim>144</dim>
					<dim>1</dim>
					<dim>1</dim>
					<dim>1</dim>
				</port>
			</output>
		</layer>
		<layer id="252" name="2818292925874/restored_convert/quantized2987845081" type="Const" version="opset1">
			<data offset="15566" size="3456" shape="144,24,1,1" element_type="i8"/>
			<output>
				<port id="0" precision="I8">
					<dim>144</dim>
					<dim>24</dim>
					<dim>1</dim>
					<dim>1</dim>
				</port>
			</output>
		</layer>
		<layer id="253" name="2818292925874/restored_convert/quantized/to_f32" type="Convert" version="opset1">
			<data destination_type="f32"/>
			<input>
				<port id="0">
					<dim>144</dim>
					<dim>24</dim>
					<dim>1</dim>
					<dim>1</dim>
				</port>
			</input>
			<output>
				<port id="1" precision="FP32">
					<dim>144</dim>
					<dim>24</dim>
					<dim>1</dim>
					<dim>1</dim>
				</port>
			</output>
		</layer>
		<layer id="254" name="Conv_28/WithoutBiases/fq_weights_1/mulpiply_by_scale" type="Multiply" version="opset1">
			<data auto_broadcast="numpy"/>
			<input>
				<port id="0">
					<dim>144</dim>
					<dim>24</dim>
					<dim>1</dim>
					<dim>1</dim>
				</port>
				<port id="1">
					<dim>144</dim>
					<dim>1</dim>
					<dim>1</dim>
					<dim>1</dim>
				</port>
			</input>
			<output>
				<port id="2" precision="FP32">
					<dim>144</dim>
					<dim>24</dim>
					<dim>1</dim>
					<dim>1</dim>
				</port>
			</output>
		</layer>
		<layer id="255" name="Conv_28/WithoutBiases" type="Convolution" version="opset1">
			<data auto_pad="explicit" strides="1,1" dilations="1,1" pads_begin="0,0" pads_end="0,0"/>
			<input>
				<port id="0">
					<dim>1</dim>
					<dim>24</dim>
					<dim>180</dim>
					<dim>320</dim>
				</port>
				<port id="1">
					<dim>144</dim>
					<dim>24</dim>
					<dim>1</dim>
					<dim>1</dim>
				</port>
			</input>
			<output>
				<port id="2" precision="FP32">
					<dim>1</dim>
					<dim>144</dim>
					<dim>180</dim>
					<dim>320</dim>
				</port>
			</output>
		</layer>
		<layer id="256" name="Reshape_1377293247445" type="Const" version="opset1">
			<data offset="19022" size="288" shape="1,144,1,1" element_type="f16"/>
			<output>
				<port id="0" precision="FP16">
					<dim>1</dim>
					<dim>144</dim>
					<dim>1</dim>
					<dim>1</dim>
				</port>
			</output>
		</layer>
		<layer id="257" name="Reshape_1377293225875/restored_convert" type="Convert" version="opset1">
			<data destination_type="f32"/>
			<rt_info>
				<attribute name="decompression" version="0"/>
			</rt_info>
			<input>
				<port id="0">
					<dim>1</dim>
					<dim>144</dim>
					<dim>1</dim>
					<dim>1</dim>
				</port>
			</input>
			<output>
				<port id="1" precision="FP32">
					<dim>1</dim>
					<dim>144</dim>
					<dim>1</dim>
					<dim>1</dim>
				</port>
			</output>
		</layer>
		<layer id="258" name="Conv_28" type="Add" version="opset1">
			<data auto_broadcast="numpy"/>
			<input>
				<port id="0">
					<dim>1</dim>
					<dim>144</dim>
					<dim>180</dim>
					<dim>320</dim>
				</port>
				<port id="1">
					<dim>1</dim>
					<dim>144</dim>
					<dim>1</dim>
					<dim>1</dim>
				</port>
			</input>
			<output>
				<port id="2" precision="FP32" names="2817">
					<dim>1</dim>
					<dim>144</dim>
					<dim>180</dim>
					<dim>320</dim>
				</port>
			</output>
		</layer>
		<layer id="259" name="Clip_31" type="Clamp" version="opset1">
			<data max="6" min="0"/>
			<input>
				<port id="0">
					<dim>1</dim>
					<dim>144</dim>
					<dim>180</dim>
					<dim>320</dim>
				</port>
			</input>
			<output>
				<port id="1" precision="FP32" names="403">
					<dim>1</dim>
					<dim>144</dim>
					<dim>180</dim>
					<dim>320</dim>
				</port>
			</output>
		</layer>
		<layer id="260" name="Conv_32/WithoutBiases/fq_input_0" type="FakeQuantize" version="opset1">
			<data levels="256" auto_broadcast="numpy"/>
			<input>
				<port id="0">
					<dim>1</dim>
					<dim>144</dim>
					<dim>180</dim>
					<dim>320</dim>
				</port>
				<port id="1">
					<dim>1</dim>
					<dim>144</dim>
					<dim>1</dim>
					<dim>1</dim>
				</port>
				<port id="2">
					<dim>1</dim>
					<dim>144</dim>
					<dim>1</dim>
					<dim>1</dim>
				</port>
				<port id="3">
					<dim>1</dim>
					<dim>144</dim>
					<dim>1</dim>
					<dim>1</dim>
				</port>
				<port id="4">
					<dim>1</dim>
					<dim>144</dim>
					<dim>1</dim>
					<dim>1</dim>
				</port>
			</input>
			<output>
				<port id="5" precision="FP32">
					<dim>1</dim>
					<dim>144</dim>
					<dim>180</dim>
					<dim>320</dim>
				</port>
			</output>
		</layer>
		<layer id="261" name="Conv_32/WithoutBiases/fq_weights_1/scale3054644076" type="Const" version="opset1">
			<data offset="19310" size="576" shape="144,1,1,1" element_type="f32"/>
			<output>
				<port id="0" precision="FP32">
					<dim>144</dim>
					<dim>1</dim>
					<dim>1</dim>
					<dim>1</dim>
				</port>
			</output>
		</layer>
		<layer id="262" name="Reshape_1414293625876/restored_convert/quantized3053842108" type="Const" version="opset1">
			<data offset="19886" size="1296" shape="144,1,3,3" element_type="i8"/>
			<output>
				<port id="0" precision="I8">
					<dim>144</dim>
					<dim>1</dim>
					<dim>3</dim>
					<dim>3</dim>
				</port>
			</output>
		</layer>
		<layer id="263" name="Reshape_1414293625876/restored_convert/quantized/to_f32" type="Convert" version="opset1">
			<data destination_type="f32"/>
			<input>
				<port id="0">
					<dim>144</dim>
					<dim>1</dim>
					<dim>3</dim>
					<dim>3</dim>
				</port>
			</input>
			<output>
				<port id="1" precision="FP32">
					<dim>144</dim>
					<dim>1</dim>
					<dim>3</dim>
					<dim>3</dim>
				</port>
			</output>
		</layer>
		<layer id="264" name="Conv_32/WithoutBiases/fq_weights_1/mulpiply_by_scale" type="Multiply" version="opset1">
			<data auto_broadcast="numpy"/>
			<input>
				<port id="0">
					<dim>144</dim>
					<dim>1</dim>
					<dim>3</dim>
					<dim>3</dim>
				</port>
				<port id="1">
					<dim>144</dim>
					<dim>1</dim>
					<dim>1</dim>
					<dim>1</dim>
				</port>
			</input>
			<output>
				<port id="2" precision="FP32">
					<dim>144</dim>
					<dim>1</dim>
					<dim>3</dim>
					<dim>3</dim>
				</port>
			</output>
		</layer>
		<layer id="265" name="Conv_32/WithoutBiases/GOI_weights_part3783242333" type="Const" version="opset1">
			<data offset="21182" size="24" shape="3" element_type="i64"/>
			<output>
				<port id="0" precision="I64">
					<dim>3</dim>
				</port>
			</output>
		</layer>
		<layer id="266" name="Conv_32/WithoutBiases/WeightsShape" type="ShapeOf" version="opset3">
			<data output_type="i64"/>
			<input>
				<port id="0">
					<dim>144</dim>
					<dim>1</dim>
					<dim>3</dim>
					<dim>3</dim>
				</port>
			</input>
			<output>
				<port id="1" precision="I64">
					<dim>4</dim>
				</port>
			</output>
		</layer>
		<layer id="267" name="Conv_32/WithoutBiases/XY_weights_part_input_port_1/value3782846077" type="Const" version="opset1">
			<data offset="8270" size="16" shape="2" element_type="i64"/>
			<output>
				<port id="0" precision="I64">
					<dim>2</dim>
				</port>
			</output>
		</layer>
		<layer id="268" name="Conv_32/WithoutBiases/XY_weights_part_input_port_2/value3783046455" type="Const" version="opset1">
			<data offset="8286" size="8" shape="" element_type="i64"/>
			<output>
				<port id="0" precision="I64"/>
			</output>
		</layer>
		<layer id="269" name="Conv_32/WithoutBiases/XY_weights_part" type="Gather" version="opset8">
			<data batch_dims="0"/>
			<input>
				<port id="0">
					<dim>4</dim>
				</port>
				<port id="1">
					<dim>2</dim>
				</port>
				<port id="2"/>
			</input>
			<output>
				<port id="3" precision="I64">
					<dim>2</dim>
				</port>
			</output>
		</layer>
		<layer id="270" name="Conv_32/WithoutBiases/weights_shape" type="Concat" version="opset1">
			<data axis="0"/>
			<input>
				<port id="0">
					<dim>3</dim>
				</port>
				<port id="1">
					<dim>2</dim>
				</port>
			</input>
			<output>
				<port id="2" precision="I64">
					<dim>5</dim>
				</port>
			</output>
		</layer>
		<layer id="271" name="37834" type="Reshape" version="opset1">
			<data special_zero="true"/>
			<input>
				<port id="0">
					<dim>144</dim>
					<dim>1</dim>
					<dim>3</dim>
					<dim>3</dim>
				</port>
				<port id="1">
					<dim>5</dim>
				</port>
			</input>
			<output>
				<port id="2" precision="FP32">
					<dim>144</dim>
					<dim>1</dim>
					<dim>1</dim>
					<dim>3</dim>
					<dim>3</dim>
				</port>
			</output>
		</layer>
		<layer id="272" name="Conv_32/WithoutBiases" type="GroupConvolution" version="opset1">
			<data auto_pad="explicit" strides="1,1" dilations="1,1" pads_begin="1,1" pads_end="1,1"/>
			<input>
				<port id="0">
					<dim>1</dim>
					<dim>144</dim>
					<dim>180</dim>
					<dim>320</dim>
				</port>
				<port id="1">
					<dim>144</dim>
					<dim>1</dim>
					<dim>1</dim>
					<dim>3</dim>
					<dim>3</dim>
				</port>
			</input>
			<output>
				<port id="2" precision="FP32">
					<dim>1</dim>
					<dim>144</dim>
					<dim>180</dim>
					<dim>320</dim>
				</port>
			</output>
		</layer>
		<layer id="273" name="Reshape_1500293942627" type="Const" version="opset1">
			<data offset="21206" size="288" shape="1,144,1,1" element_type="f16"/>
			<output>
				<port id="0" precision="FP16">
					<dim>1</dim>
					<dim>144</dim>
					<dim>1</dim>
					<dim>1</dim>
				</port>
			</output>
		</layer>
		<layer id="274" name="Reshape_1500293925877/restored_convert" type="Convert" version="opset1">
			<data destination_type="f32"/>
			<rt_info>
				<attribute name="decompression" version="0"/>
			</rt_info>
			<input>
				<port id="0">
					<dim>1</dim>
					<dim>144</dim>
					<dim>1</dim>
					<dim>1</dim>
				</port>
			</input>
			<output>
				<port id="1" precision="FP32">
					<dim>1</dim>
					<dim>144</dim>
					<dim>1</dim>
					<dim>1</dim>
				</port>
			</output>
		</layer>
		<layer id="275" name="Conv_32" type="Add" version="opset1">
			<data auto_broadcast="numpy"/>
			<input>
				<port id="0">
					<dim>1</dim>
					<dim>144</dim>
					<dim>180</dim>
					<dim>320</dim>
				</port>
				<port id="1">
					<dim>1</dim>
					<dim>144</dim>
					<dim>1</dim>
					<dim>1</dim>
				</port>
			</input>
			<output>
				<port id="2" precision="FP32" names="2820">
					<dim>1</dim>
					<dim>144</dim>
					<dim>180</dim>
					<dim>320</dim>
				</port>
			</output>
		</layer>
		<layer id="276" name="Clip_35" type="Clamp" version="opset1">
			<data max="6" min="0"/>
			<input>
				<port id="0">
					<dim>1</dim>
					<dim>144</dim>
					<dim>180</dim>
					<dim>320</dim>
				</port>
			</input>
			<output>
				<port id="1" precision="FP32" names="408">
					<dim>1</dim>
					<dim>144</dim>
					<dim>180</dim>
					<dim>320</dim>
				</port>
			</output>
		</layer>
		<layer id="277" name="Conv_36/WithoutBiases/fq_input_0" type="FakeQuantize" version="opset1">
			<data levels="256" auto_broadcast="numpy"/>
			<input>
				<port id="0">
					<dim>1</dim>
					<dim>144</dim>
					<dim>180</dim>
					<dim>320</dim>
				</port>
				<port id="1"/>
				<port id="2"/>
				<port id="3"/>
				<port id="4"/>
			</input>
			<output>
				<port id="5" precision="FP32">
					<dim>1</dim>
					<dim>144</dim>
					<dim>180</dim>
					<dim>320</dim>
				</port>
			</output>
		</layer>
		<layer id="278" name="Conv_36/WithoutBiases/fq_weights_1/scale2877646446" type="Const" version="opset1">
			<data offset="21494" size="96" shape="24,1,1,1" element_type="f32"/>
			<output>
				<port id="0" precision="FP32">
					<dim>24</dim>
					<dim>1</dim>
					<dim>1</dim>
					<dim>1</dim>
				</port>
			</output>
		</layer>
		<layer id="279" name="2824294325878/restored_convert/quantized2876846203" type="Const" version="opset1">
			<data offset="21590" size="3456" shape="24,144,1,1" element_type="i8"/>
			<output>
				<port id="0" precision="I8">
					<dim>24</dim>
					<dim>144</dim>
					<dim>1</dim>
					<dim>1</dim>
				</port>
			</output>
		</layer>
		<layer id="280" name="2824294325878/restored_convert/quantized/to_f32" type="Convert" version="opset1">
			<data destination_type="f32"/>
			<input>
				<port id="0">
					<dim>24</dim>
					<dim>144</dim>
					<dim>1</dim>
					<dim>1</dim>
				</port>
			</input>
			<output>
				<port id="1" precision="FP32">
					<dim>24</dim>
					<dim>144</dim>
					<dim>1</dim>
					<dim>1</dim>
				</port>
			</output>
		</layer>
		<layer id="281" name="Conv_36/WithoutBiases/fq_weights_1/mulpiply_by_scale" type="Multiply" version="opset1">
			<data auto_broadcast="numpy"/>
			<input>
				<port id="0">
					<dim>24</dim>
					<dim>144</dim>
					<dim>1</dim>
					<dim>1</dim>
				</port>
				<port id="1">
					<dim>24</dim>
					<dim>1</dim>
					<dim>1</dim>
					<dim>1</dim>
				</port>
			</input>
			<output>
				<port id="2" precision="FP32">
					<dim>24</dim>
					<dim>144</dim>
					<dim>1</dim>
					<dim>1</dim>
				</port>
			</output>
		</layer>
		<layer id="282" name="Conv_36/WithoutBiases" type="Convolution" version="opset1">
			<data auto_pad="explicit" strides="1,1" dilations="1,1" pads_begin="0,0" pads_end="0,0"/>
			<input>
				<port id="0">
					<dim>1</dim>
					<dim>144</dim>
					<dim>180</dim>
					<dim>320</dim>
				</port>
				<port id="1">
					<dim>24</dim>
					<dim>144</dim>
					<dim>1</dim>
					<dim>1</dim>
				</port>
			</input>
			<output>
				<port id="2" precision="FP32">
					<dim>1</dim>
					<dim>24</dim>
					<dim>180</dim>
					<dim>320</dim>
				</port>
			</output>
		</layer>
		<layer id="283" name="Reshape_1550294642876" type="Const" version="opset1">
			<data offset="25046" size="48" shape="1,24,1,1" element_type="f16"/>
			<output>
				<port id="0" precision="FP16">
					<dim>1</dim>
					<dim>24</dim>
					<dim>1</dim>
					<dim>1</dim>
				</port>
			</output>
		</layer>
		<layer id="284" name="Reshape_1550294625879/restored_convert" type="Convert" version="opset1">
			<data destination_type="f32"/>
			<rt_info>
				<attribute name="decompression" version="0"/>
			</rt_info>
			<input>
				<port id="0">
					<dim>1</dim>
					<dim>24</dim>
					<dim>1</dim>
					<dim>1</dim>
				</port>
			</input>
			<output>
				<port id="1" precision="FP32">
					<dim>1</dim>
					<dim>24</dim>
					<dim>1</dim>
					<dim>1</dim>
				</port>
			</output>
		</layer>
		<layer id="285" name="Conv_36" type="Add" version="opset1">
			<data auto_broadcast="numpy"/>
			<input>
				<port id="0">
					<dim>1</dim>
					<dim>24</dim>
					<dim>180</dim>
					<dim>320</dim>
				</port>
				<port id="1">
					<dim>1</dim>
					<dim>24</dim>
					<dim>1</dim>
					<dim>1</dim>
				</port>
			</input>
			<output>
				<port id="2" precision="FP32" names="2823">
					<dim>1</dim>
					<dim>24</dim>
					<dim>180</dim>
					<dim>320</dim>
				</port>
			</output>
		</layer>
		<layer id="286" name="Add_37/fq_input_0" type="FakeQuantize" version="opset1">
			<data levels="256" auto_broadcast="numpy"/>
			<input>
				<port id="0">
					<dim>1</dim>
					<dim>24</dim>
					<dim>180</dim>
					<dim>320</dim>
				</port>
				<port id="1"/>
				<port id="2"/>
				<port id="3"/>
				<port id="4"/>
			</input>
			<output>
				<port id="5" precision="FP32">
					<dim>1</dim>
					<dim>24</dim>
					<dim>180</dim>
					<dim>320</dim>
				</port>
			</output>
		</layer>
		<layer id="287" name="Add_37" type="Add" version="opset1">
			<data auto_broadcast="numpy"/>
			<input>
				<port id="0">
					<dim>1</dim>
					<dim>24</dim>
					<dim>180</dim>
					<dim>320</dim>
				</port>
				<port id="1">
					<dim>1</dim>
					<dim>24</dim>
					<dim>180</dim>
					<dim>320</dim>
				</port>
			</input>
			<output>
				<port id="2" precision="FP32" names="411">
					<dim>1</dim>
					<dim>24</dim>
					<dim>180</dim>
					<dim>320</dim>
				</port>
			</output>
		</layer>
		<layer id="288" name="Conv_38/WithoutBiases/fq_input_0" type="FakeQuantize" version="opset1">
			<data levels="256" auto_broadcast="numpy"/>
			<input>
				<port id="0">
					<dim>1</dim>
					<dim>24</dim>
					<dim>180</dim>
					<dim>320</dim>
				</port>
				<port id="1"/>
				<port id="2"/>
				<port id="3"/>
				<port id="4"/>
			</input>
			<output>
				<port id="5" precision="FP32">
					<dim>1</dim>
					<dim>24</dim>
					<dim>180</dim>
					<dim>320</dim>
				</port>
			</output>
		</layer>
		<layer id="289" name="Conv_38/WithoutBiases/fq_weights_1/scale3036646845" type="Const" version="opset1">
			<data offset="25094" size="576" shape="144,1,1,1" element_type="f32"/>
			<output>
				<port id="0" precision="FP32">
					<dim>144</dim>
					<dim>1</dim>
					<dim>1</dim>
					<dim>1</dim>
				</port>
			</output>
		</layer>
		<layer id="290" name="2827295025880/restored_convert/quantized3035844847" type="Const" version="opset1">
			<data offset="25670" size="3456" shape="144,24,1,1" element_type="i8"/>
			<output>
				<port id="0" precision="I8">
					<dim>144</dim>
					<dim>24</dim>
					<dim>1</dim>
					<dim>1</dim>
				</port>
			</output>
		</layer>
		<layer id="291" name="2827295025880/restored_convert/quantized/to_f32" type="Convert" version="opset1">
			<data destination_type="f32"/>
			<input>
				<port id="0">
					<dim>144</dim>
					<dim>24</dim>
					<dim>1</dim>
					<dim>1</dim>
				</port>
			</input>
			<output>
				<port id="1" precision="FP32">
					<dim>144</dim>
					<dim>24</dim>
					<dim>1</dim>
					<dim>1</dim>
				</port>
			</output>
		</layer>
		<layer id="292" name="Conv_38/WithoutBiases/fq_weights_1/mulpiply_by_scale" type="Multiply" version="opset1">
			<data auto_broadcast="numpy"/>
			<input>
				<port id="0">
					<dim>144</dim>
					<dim>24</dim>
					<dim>1</dim>
					<dim>1</dim>
				</port>
				<port id="1">
					<dim>144</dim>
					<dim>1</dim>
					<dim>1</dim>
					<dim>1</dim>
				</port>
			</input>
			<output>
				<port id="2" precision="FP32">
					<dim>144</dim>
					<dim>24</dim>
					<dim>1</dim>
					<dim>1</dim>
				</port>
			</output>
		</layer>
		<layer id="293" name="Conv_38/WithoutBiases" type="Convolution" version="opset1">
			<data auto_pad="explicit" strides="1,1" dilations="1,1" pads_begin="0,0" pads_end="0,0"/>
			<input>
				<port id="0">
					<dim>1</dim>
					<dim>24</dim>
					<dim>180</dim>
					<dim>320</dim>
				</port>
				<port id="1">
					<dim>144</dim>
					<dim>24</dim>
					<dim>1</dim>
					<dim>1</dim>
				</port>
			</input>
			<output>
				<port id="2" precision="FP32">
					<dim>1</dim>
					<dim>144</dim>
					<dim>180</dim>
					<dim>320</dim>
				</port>
			</output>
		</layer>
		<layer id="294" name="Reshape_1599295346770" type="Const" version="opset1">
			<data offset="29126" size="288" shape="1,144,1,1" element_type="f16"/>
			<output>
				<port id="0" precision="FP16">
					<dim>1</dim>
					<dim>144</dim>
					<dim>1</dim>
					<dim>1</dim>
				</port>
			</output>
		</layer>
		<layer id="295" name="Reshape_1599295325881/restored_convert" type="Convert" version="opset1">
			<data destination_type="f32"/>
			<rt_info>
				<attribute name="decompression" version="0"/>
			</rt_info>
			<input>
				<port id="0">
					<dim>1</dim>
					<dim>144</dim>
					<dim>1</dim>
					<dim>1</dim>
				</port>
			</input>
			<output>
				<port id="1" precision="FP32">
					<dim>1</dim>
					<dim>144</dim>
					<dim>1</dim>
					<dim>1</dim>
				</port>
			</output>
		</layer>
		<layer id="296" name="Conv_38" type="Add" version="opset1">
			<data auto_broadcast="numpy"/>
			<input>
				<port id="0">
					<dim>1</dim>
					<dim>144</dim>
					<dim>180</dim>
					<dim>320</dim>
				</port>
				<port id="1">
					<dim>1</dim>
					<dim>144</dim>
					<dim>1</dim>
					<dim>1</dim>
				</port>
			</input>
			<output>
				<port id="2" precision="FP32" names="2826">
					<dim>1</dim>
					<dim>144</dim>
					<dim>180</dim>
					<dim>320</dim>
				</port>
			</output>
		</layer>
		<layer id="297" name="Clip_41" type="Clamp" version="opset1">
			<data max="6" min="0"/>
			<input>
				<port id="0">
					<dim>1</dim>
					<dim>144</dim>
					<dim>180</dim>
					<dim>320</dim>
				</port>
			</input>
			<output>
				<port id="1" precision="FP32" names="416">
					<dim>1</dim>
					<dim>144</dim>
					<dim>180</dim>
					<dim>320</dim>
				</port>
			</output>
		</layer>
		<layer id="298" name="Conv_42/WithoutBiases/fq_input_0" type="FakeQuantize" version="opset1">
			<data levels="256" auto_broadcast="numpy"/>
			<input>
				<port id="0">
					<dim>1</dim>
					<dim>144</dim>
					<dim>180</dim>
					<dim>320</dim>
				</port>
				<port id="1">
					<dim>1</dim>
					<dim>144</dim>
					<dim>1</dim>
					<dim>1</dim>
				</port>
				<port id="2">
					<dim>1</dim>
					<dim>144</dim>
					<dim>1</dim>
					<dim>1</dim>
				</port>
				<port id="3">
					<dim>1</dim>
					<dim>144</dim>
					<dim>1</dim>
					<dim>1</dim>
				</port>
				<port id="4">
					<dim>1</dim>
					<dim>144</dim>
					<dim>1</dim>
					<dim>1</dim>
				</port>
			</input>
			<output>
				<port id="5" precision="FP32">
					<dim>1</dim>
					<dim>144</dim>
					<dim>180</dim>
					<dim>320</dim>
				</port>
			</output>
		</layer>
		<layer id="299" name="Conv_42/WithoutBiases/fq_weights_1/scale2925646755" type="Const" version="opset1">
			<data offset="29414" size="576" shape="144,1,1,1" element_type="f32"/>
			<output>
				<port id="0" precision="FP32">
					<dim>144</dim>
					<dim>1</dim>
					<dim>1</dim>
					<dim>1</dim>
				</port>
			</output>
		</layer>
		<layer id="300" name="Reshape_1636295725882/restored_convert/quantized2924844850" type="Const" version="opset1">
			<data offset="29990" size="1296" shape="144,1,3,3" element_type="i8"/>
			<output>
				<port id="0" precision="I8">
					<dim>144</dim>
					<dim>1</dim>
					<dim>3</dim>
					<dim>3</dim>
				</port>
			</output>
		</layer>
		<layer id="301" name="Reshape_1636295725882/restored_convert/quantized/to_f32" type="Convert" version="opset1">
			<data destination_type="f32"/>
			<input>
				<port id="0">
					<dim>144</dim>
					<dim>1</dim>
					<dim>3</dim>
					<dim>3</dim>
				</port>
			</input>
			<output>
				<port id="1" precision="FP32">
					<dim>144</dim>
					<dim>1</dim>
					<dim>3</dim>
					<dim>3</dim>
				</port>
			</output>
		</layer>
		<layer id="302" name="Conv_42/WithoutBiases/fq_weights_1/mulpiply_by_scale" type="Multiply" version="opset1">
			<data auto_broadcast="numpy"/>
			<input>
				<port id="0">
					<dim>144</dim>
					<dim>1</dim>
					<dim>3</dim>
					<dim>3</dim>
				</port>
				<port id="1">
					<dim>144</dim>
					<dim>1</dim>
					<dim>1</dim>
					<dim>1</dim>
				</port>
			</input>
			<output>
				<port id="2" precision="FP32">
					<dim>144</dim>
					<dim>1</dim>
					<dim>3</dim>
					<dim>3</dim>
				</port>
			</output>
		</layer>
		<layer id="303" name="Conv_42/WithoutBiases/GOI_weights_part3784642576" type="Const" version="opset1">
			<data offset="21182" size="24" shape="3" element_type="i64"/>
			<output>
				<port id="0" precision="I64">
					<dim>3</dim>
				</port>
			</output>
		</layer>
		<layer id="304" name="Conv_42/WithoutBiases/WeightsShape" type="ShapeOf" version="opset3">
			<data output_type="i64"/>
			<input>
				<port id="0">
					<dim>144</dim>
					<dim>1</dim>
					<dim>3</dim>
					<dim>3</dim>
				</port>
			</input>
			<output>
				<port id="1" precision="I64">
					<dim>4</dim>
				</port>
			</output>
		</layer>
		<layer id="305" name="Conv_42/WithoutBiases/XY_weights_part_input_port_1/value3784242516" type="Const" version="opset1">
			<data offset="8270" size="16" shape="2" element_type="i64"/>
			<output>
				<port id="0" precision="I64">
					<dim>2</dim>
				</port>
			</output>
		</layer>
		<layer id="306" name="Conv_42/WithoutBiases/XY_weights_part_input_port_2/value3784444445" type="Const" version="opset1">
			<data offset="8286" size="8" shape="" element_type="i64"/>
			<output>
				<port id="0" precision="I64"/>
			</output>
		</layer>
		<layer id="307" name="Conv_42/WithoutBiases/XY_weights_part" type="Gather" version="opset8">
			<data batch_dims="0"/>
			<input>
				<port id="0">
					<dim>4</dim>
				</port>
				<port id="1">
					<dim>2</dim>
				</port>
				<port id="2"/>
			</input>
			<output>
				<port id="3" precision="I64">
					<dim>2</dim>
				</port>
			</output>
		</layer>
		<layer id="308" name="Conv_42/WithoutBiases/weights_shape" type="Concat" version="opset1">
			<data axis="0"/>
			<input>
				<port id="0">
					<dim>3</dim>
				</port>
				<port id="1">
					<dim>2</dim>
				</port>
			</input>
			<output>
				<port id="2" precision="I64">
					<dim>5</dim>
				</port>
			</output>
		</layer>
		<layer id="309" name="37848" type="Reshape" version="opset1">
			<data special_zero="true"/>
			<input>
				<port id="0">
					<dim>144</dim>
					<dim>1</dim>
					<dim>3</dim>
					<dim>3</dim>
				</port>
				<port id="1">
					<dim>5</dim>
				</port>
			</input>
			<output>
				<port id="2" precision="FP32">
					<dim>144</dim>
					<dim>1</dim>
					<dim>1</dim>
					<dim>3</dim>
					<dim>3</dim>
				</port>
			</output>
		</layer>
		<layer id="310" name="Conv_42/WithoutBiases" type="GroupConvolution" version="opset1">
			<data auto_pad="explicit" strides="2,2" dilations="1,1" pads_begin="1,1" pads_end="1,1"/>
			<input>
				<port id="0">
					<dim>1</dim>
					<dim>144</dim>
					<dim>180</dim>
					<dim>320</dim>
				</port>
				<port id="1">
					<dim>144</dim>
					<dim>1</dim>
					<dim>1</dim>
					<dim>3</dim>
					<dim>3</dim>
				</port>
			</input>
			<output>
				<port id="2" precision="FP32">
					<dim>1</dim>
					<dim>144</dim>
					<dim>90</dim>
					<dim>160</dim>
				</port>
			</output>
		</layer>
		<layer id="311" name="Reshape_1722296045030" type="Const" version="opset1">
			<data offset="31286" size="288" shape="1,144,1,1" element_type="f16"/>
			<output>
				<port id="0" precision="FP16">
					<dim>1</dim>
					<dim>144</dim>
					<dim>1</dim>
					<dim>1</dim>
				</port>
			</output>
		</layer>
		<layer id="312" name="Reshape_1722296025883/restored_convert" type="Convert" version="opset1">
			<data destination_type="f32"/>
			<rt_info>
				<attribute name="decompression" version="0"/>
			</rt_info>
			<input>
				<port id="0">
					<dim>1</dim>
					<dim>144</dim>
					<dim>1</dim>
					<dim>1</dim>
				</port>
			</input>
			<output>
				<port id="1" precision="FP32">
					<dim>1</dim>
					<dim>144</dim>
					<dim>1</dim>
					<dim>1</dim>
				</port>
			</output>
		</layer>
		<layer id="313" name="Conv_42" type="Add" version="opset1">
			<data auto_broadcast="numpy"/>
			<input>
				<port id="0">
					<dim>1</dim>
					<dim>144</dim>
					<dim>90</dim>
					<dim>160</dim>
				</port>
				<port id="1">
					<dim>1</dim>
					<dim>144</dim>
					<dim>1</dim>
					<dim>1</dim>
				</port>
			</input>
			<output>
				<port id="2" precision="FP32" names="2829">
					<dim>1</dim>
					<dim>144</dim>
					<dim>90</dim>
					<dim>160</dim>
				</port>
			</output>
		</layer>
		<layer id="314" name="Clip_45" type="Clamp" version="opset1">
			<data max="6" min="0"/>
			<input>
				<port id="0">
					<dim>1</dim>
					<dim>144</dim>
					<dim>90</dim>
					<dim>160</dim>
				</port>
			</input>
			<output>
				<port id="1" precision="FP32" names="421">
					<dim>1</dim>
					<dim>144</dim>
					<dim>90</dim>
					<dim>160</dim>
				</port>
			</output>
		</layer>
		<layer id="315" name="Conv_46/WithoutBiases/fq_input_0" type="FakeQuantize" version="opset1">
			<data levels="256" auto_broadcast="numpy"/>
			<input>
				<port id="0">
					<dim>1</dim>
					<dim>144</dim>
					<dim>90</dim>
					<dim>160</dim>
				</port>
				<port id="1"/>
				<port id="2"/>
				<port id="3"/>
				<port id="4"/>
			</input>
			<output>
				<port id="5" precision="FP32">
					<dim>1</dim>
					<dim>144</dim>
					<dim>90</dim>
					<dim>160</dim>
				</port>
			</output>
		</layer>
		<layer id="316" name="Conv_46/WithoutBiases/fq_weights_1/scale2937646581" type="Const" version="opset1">
			<data offset="31574" size="128" shape="32,1,1,1" element_type="f32"/>
			<output>
				<port id="0" precision="FP32">
					<dim>32</dim>
					<dim>1</dim>
					<dim>1</dim>
					<dim>1</dim>
				</port>
			</output>
		</layer>
		<layer id="317" name="2833296425884/restored_convert/quantized2936842765" type="Const" version="opset1">
			<data offset="31702" size="4608" shape="32,144,1,1" element_type="i8"/>
			<output>
				<port id="0" precision="I8">
					<dim>32</dim>
					<dim>144</dim>
					<dim>1</dim>
					<dim>1</dim>
				</port>
			</output>
		</layer>
		<layer id="318" name="2833296425884/restored_convert/quantized/to_f32" type="Convert" version="opset1">
			<data destination_type="f32"/>
			<input>
				<port id="0">
					<dim>32</dim>
					<dim>144</dim>
					<dim>1</dim>
					<dim>1</dim>
				</port>
			</input>
			<output>
				<port id="1" precision="FP32">
					<dim>32</dim>
					<dim>144</dim>
					<dim>1</dim>
					<dim>1</dim>
				</port>
			</output>
		</layer>
		<layer id="319" name="Conv_46/WithoutBiases/fq_weights_1/mulpiply_by_scale" type="Multiply" version="opset1">
			<data auto_broadcast="numpy"/>
			<input>
				<port id="0">
					<dim>32</dim>
					<dim>144</dim>
					<dim>1</dim>
					<dim>1</dim>
				</port>
				<port id="1">
					<dim>32</dim>
					<dim>1</dim>
					<dim>1</dim>
					<dim>1</dim>
				</port>
			</input>
			<output>
				<port id="2" precision="FP32">
					<dim>32</dim>
					<dim>144</dim>
					<dim>1</dim>
					<dim>1</dim>
				</port>
			</output>
		</layer>
		<layer id="320" name="Conv_46/WithoutBiases" type="Convolution" version="opset1">
			<data auto_pad="explicit" strides="1,1" dilations="1,1" pads_begin="0,0" pads_end="0,0"/>
			<input>
				<port id="0">
					<dim>1</dim>
					<dim>144</dim>
					<dim>90</dim>
					<dim>160</dim>
				</port>
				<port id="1">
					<dim>32</dim>
					<dim>144</dim>
					<dim>1</dim>
					<dim>1</dim>
				</port>
			</input>
			<output>
				<port id="2" precision="FP32">
					<dim>1</dim>
					<dim>32</dim>
					<dim>90</dim>
					<dim>160</dim>
				</port>
			</output>
		</layer>
		<layer id="321" name="Reshape_1772296744232" type="Const" version="opset1">
			<data offset="36310" size="64" shape="1,32,1,1" element_type="f16"/>
			<output>
				<port id="0" precision="FP16">
					<dim>1</dim>
					<dim>32</dim>
					<dim>1</dim>
					<dim>1</dim>
				</port>
			</output>
		</layer>
		<layer id="322" name="Reshape_1772296725885/restored_convert" type="Convert" version="opset1">
			<data destination_type="f32"/>
			<rt_info>
				<attribute name="decompression" version="0"/>
			</rt_info>
			<input>
				<port id="0">
					<dim>1</dim>
					<dim>32</dim>
					<dim>1</dim>
					<dim>1</dim>
				</port>
			</input>
			<output>
				<port id="1" precision="FP32">
					<dim>1</dim>
					<dim>32</dim>
					<dim>1</dim>
					<dim>1</dim>
				</port>
			</output>
		</layer>
		<layer id="323" name="Conv_46" type="Add" version="opset1">
			<data auto_broadcast="numpy"/>
			<input>
				<port id="0">
					<dim>1</dim>
					<dim>32</dim>
					<dim>90</dim>
					<dim>160</dim>
				</port>
				<port id="1">
					<dim>1</dim>
					<dim>32</dim>
					<dim>1</dim>
					<dim>1</dim>
				</port>
			</input>
			<output>
				<port id="2" precision="FP32" names="2832">
					<dim>1</dim>
					<dim>32</dim>
					<dim>90</dim>
					<dim>160</dim>
				</port>
			</output>
		</layer>
		<layer id="324" name="Add_56/fq_input_1" type="FakeQuantize" version="opset1">
			<data levels="256" auto_broadcast="numpy"/>
			<input>
				<port id="0">
					<dim>1</dim>
					<dim>32</dim>
					<dim>90</dim>
					<dim>160</dim>
				</port>
				<port id="1"/>
				<port id="2"/>
				<port id="3"/>
				<port id="4"/>
			</input>
			<output>
				<port id="5" precision="FP32">
					<dim>1</dim>
					<dim>32</dim>
					<dim>90</dim>
					<dim>160</dim>
				</port>
			</output>
		</layer>
		<layer id="325" name="Conv_47/WithoutBiases/fq_weights_1/scale2976643401" type="Const" version="opset1">
			<data offset="36374" size="768" shape="192,1,1,1" element_type="f32"/>
			<output>
				<port id="0" precision="FP32">
					<dim>192</dim>
					<dim>1</dim>
					<dim>1</dim>
					<dim>1</dim>
				</port>
			</output>
		</layer>
		<layer id="326" name="2836297025886/restored_convert/quantized2975843167" type="Const" version="opset1">
			<data offset="37142" size="6144" shape="192,32,1,1" element_type="i8"/>
			<output>
				<port id="0" precision="I8">
					<dim>192</dim>
					<dim>32</dim>
					<dim>1</dim>
					<dim>1</dim>
				</port>
			</output>
		</layer>
		<layer id="327" name="2836297025886/restored_convert/quantized/to_f32" type="Convert" version="opset1">
			<data destination_type="f32"/>
			<input>
				<port id="0">
					<dim>192</dim>
					<dim>32</dim>
					<dim>1</dim>
					<dim>1</dim>
				</port>
			</input>
			<output>
				<port id="1" precision="FP32">
					<dim>192</dim>
					<dim>32</dim>
					<dim>1</dim>
					<dim>1</dim>
				</port>
			</output>
		</layer>
		<layer id="328" name="Conv_47/WithoutBiases/fq_weights_1/mulpiply_by_scale" type="Multiply" version="opset1">
			<data auto_broadcast="numpy"/>
			<input>
				<port id="0">
					<dim>192</dim>
					<dim>32</dim>
					<dim>1</dim>
					<dim>1</dim>
				</port>
				<port id="1">
					<dim>192</dim>
					<dim>1</dim>
					<dim>1</dim>
					<dim>1</dim>
				</port>
			</input>
			<output>
				<port id="2" precision="FP32">
					<dim>192</dim>
					<dim>32</dim>
					<dim>1</dim>
					<dim>1</dim>
				</port>
			</output>
		</layer>
		<layer id="329" name="Conv_47/WithoutBiases" type="Convolution" version="opset1">
			<data auto_pad="explicit" strides="1,1" dilations="1,1" pads_begin="0,0" pads_end="0,0"/>
			<input>
				<port id="0">
					<dim>1</dim>
					<dim>32</dim>
					<dim>90</dim>
					<dim>160</dim>
				</port>
				<port id="1">
					<dim>192</dim>
					<dim>32</dim>
					<dim>1</dim>
					<dim>1</dim>
				</port>
			</input>
			<output>
				<port id="2" precision="FP32">
					<dim>1</dim>
					<dim>192</dim>
					<dim>90</dim>
					<dim>160</dim>
				</port>
			</output>
		</layer>
		<layer id="330" name="Reshape_1820297343800" type="Const" version="opset1">
			<data offset="43286" size="384" shape="1,192,1,1" element_type="f16"/>
			<output>
				<port id="0" precision="FP16">
					<dim>1</dim>
					<dim>192</dim>
					<dim>1</dim>
					<dim>1</dim>
				</port>
			</output>
		</layer>
		<layer id="331" name="Reshape_1820297325887/restored_convert" type="Convert" version="opset1">
			<data destination_type="f32"/>
			<rt_info>
				<attribute name="decompression" version="0"/>
			</rt_info>
			<input>
				<port id="0">
					<dim>1</dim>
					<dim>192</dim>
					<dim>1</dim>
					<dim>1</dim>
				</port>
			</input>
			<output>
				<port id="1" precision="FP32">
					<dim>1</dim>
					<dim>192</dim>
					<dim>1</dim>
					<dim>1</dim>
				</port>
			</output>
		</layer>
		<layer id="332" name="Conv_47" type="Add" version="opset1">
			<data auto_broadcast="numpy"/>
			<input>
				<port id="0">
					<dim>1</dim>
					<dim>192</dim>
					<dim>90</dim>
					<dim>160</dim>
				</port>
				<port id="1">
					<dim>1</dim>
					<dim>192</dim>
					<dim>1</dim>
					<dim>1</dim>
				</port>
			</input>
			<output>
				<port id="2" precision="FP32" names="2835">
					<dim>1</dim>
					<dim>192</dim>
					<dim>90</dim>
					<dim>160</dim>
				</port>
			</output>
		</layer>
		<layer id="333" name="Clip_50" type="Clamp" version="opset1">
			<data max="6" min="0"/>
			<input>
				<port id="0">
					<dim>1</dim>
					<dim>192</dim>
					<dim>90</dim>
					<dim>160</dim>
				</port>
			</input>
			<output>
				<port id="1" precision="FP32" names="428">
					<dim>1</dim>
					<dim>192</dim>
					<dim>90</dim>
					<dim>160</dim>
				</port>
			</output>
		</layer>
		<layer id="334" name="Conv_51/WithoutBiases/fq_input_0" type="FakeQuantize" version="opset1">
			<data levels="256" auto_broadcast="numpy"/>
			<input>
				<port id="0">
					<dim>1</dim>
					<dim>192</dim>
					<dim>90</dim>
					<dim>160</dim>
				</port>
				<port id="1">
					<dim>1</dim>
					<dim>192</dim>
					<dim>1</dim>
					<dim>1</dim>
				</port>
				<port id="2">
					<dim>1</dim>
					<dim>192</dim>
					<dim>1</dim>
					<dim>1</dim>
				</port>
				<port id="3">
					<dim>1</dim>
					<dim>192</dim>
					<dim>1</dim>
					<dim>1</dim>
				</port>
				<port id="4">
					<dim>1</dim>
					<dim>192</dim>
					<dim>1</dim>
					<dim>1</dim>
				</port>
			</input>
			<output>
				<port id="5" precision="FP32">
					<dim>1</dim>
					<dim>192</dim>
					<dim>90</dim>
					<dim>160</dim>
				</port>
			</output>
		</layer>
		<layer id="335" name="Conv_51/WithoutBiases/fq_weights_1/scale2916646713" type="Const" version="opset1">
			<data offset="43670" size="768" shape="192,1,1,1" element_type="f32"/>
			<output>
				<port id="0" precision="FP32">
					<dim>192</dim>
					<dim>1</dim>
					<dim>1</dim>
					<dim>1</dim>
				</port>
			</output>
		</layer>
		<layer id="336" name="Reshape_1857297725888/restored_convert/quantized2915845897" type="Const" version="opset1">
			<data offset="44438" size="1728" shape="192,1,3,3" element_type="i8"/>
			<output>
				<port id="0" precision="I8">
					<dim>192</dim>
					<dim>1</dim>
					<dim>3</dim>
					<dim>3</dim>
				</port>
			</output>
		</layer>
		<layer id="337" name="Reshape_1857297725888/restored_convert/quantized/to_f32" type="Convert" version="opset1">
			<data destination_type="f32"/>
			<input>
				<port id="0">
					<dim>192</dim>
					<dim>1</dim>
					<dim>3</dim>
					<dim>3</dim>
				</port>
			</input>
			<output>
				<port id="1" precision="FP32">
					<dim>192</dim>
					<dim>1</dim>
					<dim>3</dim>
					<dim>3</dim>
				</port>
			</output>
		</layer>
		<layer id="338" name="Conv_51/WithoutBiases/fq_weights_1/mulpiply_by_scale" type="Multiply" version="opset1">
			<data auto_broadcast="numpy"/>
			<input>
				<port id="0">
					<dim>192</dim>
					<dim>1</dim>
					<dim>3</dim>
					<dim>3</dim>
				</port>
				<port id="1">
					<dim>192</dim>
					<dim>1</dim>
					<dim>1</dim>
					<dim>1</dim>
				</port>
			</input>
			<output>
				<port id="2" precision="FP32">
					<dim>192</dim>
					<dim>1</dim>
					<dim>3</dim>
					<dim>3</dim>
				</port>
			</output>
		</layer>
		<layer id="339" name="Conv_51/WithoutBiases/GOI_weights_part3786046491" type="Const" version="opset1">
			<data offset="46166" size="24" shape="3" element_type="i64"/>
			<output>
				<port id="0" precision="I64">
					<dim>3</dim>
				</port>
			</output>
		</layer>
		<layer id="340" name="Conv_51/WithoutBiases/WeightsShape" type="ShapeOf" version="opset3">
			<data output_type="i64"/>
			<input>
				<port id="0">
					<dim>192</dim>
					<dim>1</dim>
					<dim>3</dim>
					<dim>3</dim>
				</port>
			</input>
			<output>
				<port id="1" precision="I64">
					<dim>4</dim>
				</port>
			</output>
		</layer>
		<layer id="341" name="Conv_51/WithoutBiases/XY_weights_part_input_port_1/value3785642144" type="Const" version="opset1">
			<data offset="8270" size="16" shape="2" element_type="i64"/>
			<output>
				<port id="0" precision="I64">
					<dim>2</dim>
				</port>
			</output>
		</layer>
		<layer id="342" name="Conv_51/WithoutBiases/XY_weights_part_input_port_2/value3785843458" type="Const" version="opset1">
			<data offset="8286" size="8" shape="" element_type="i64"/>
			<output>
				<port id="0" precision="I64"/>
			</output>
		</layer>
		<layer id="343" name="Conv_51/WithoutBiases/XY_weights_part" type="Gather" version="opset8">
			<data batch_dims="0"/>
			<input>
				<port id="0">
					<dim>4</dim>
				</port>
				<port id="1">
					<dim>2</dim>
				</port>
				<port id="2"/>
			</input>
			<output>
				<port id="3" precision="I64">
					<dim>2</dim>
				</port>
			</output>
		</layer>
		<layer id="344" name="Conv_51/WithoutBiases/weights_shape" type="Concat" version="opset1">
			<data axis="0"/>
			<input>
				<port id="0">
					<dim>3</dim>
				</port>
				<port id="1">
					<dim>2</dim>
				</port>
			</input>
			<output>
				<port id="2" precision="I64">
					<dim>5</dim>
				</port>
			</output>
		</layer>
		<layer id="345" name="37862" type="Reshape" version="opset1">
			<data special_zero="true"/>
			<input>
				<port id="0">
					<dim>192</dim>
					<dim>1</dim>
					<dim>3</dim>
					<dim>3</dim>
				</port>
				<port id="1">
					<dim>5</dim>
				</port>
			</input>
			<output>
				<port id="2" precision="FP32">
					<dim>192</dim>
					<dim>1</dim>
					<dim>1</dim>
					<dim>3</dim>
					<dim>3</dim>
				</port>
			</output>
		</layer>
		<layer id="346" name="Conv_51/WithoutBiases" type="GroupConvolution" version="opset1">
			<data auto_pad="explicit" strides="1,1" dilations="1,1" pads_begin="1,1" pads_end="1,1"/>
			<input>
				<port id="0">
					<dim>1</dim>
					<dim>192</dim>
					<dim>90</dim>
					<dim>160</dim>
				</port>
				<port id="1">
					<dim>192</dim>
					<dim>1</dim>
					<dim>1</dim>
					<dim>3</dim>
					<dim>3</dim>
				</port>
			</input>
			<output>
				<port id="2" precision="FP32">
					<dim>1</dim>
					<dim>192</dim>
					<dim>90</dim>
					<dim>160</dim>
				</port>
			</output>
		</layer>
		<layer id="347" name="Reshape_1943298044808" type="Const" version="opset1">
			<data offset="46190" size="384" shape="1,192,1,1" element_type="f16"/>
			<output>
				<port id="0" precision="FP16">
					<dim>1</dim>
					<dim>192</dim>
					<dim>1</dim>
					<dim>1</dim>
				</port>
			</output>
		</layer>
		<layer id="348" name="Reshape_1943298025889/restored_convert" type="Convert" version="opset1">
			<data destination_type="f32"/>
			<rt_info>
				<attribute name="decompression" version="0"/>
			</rt_info>
			<input>
				<port id="0">
					<dim>1</dim>
					<dim>192</dim>
					<dim>1</dim>
					<dim>1</dim>
				</port>
			</input>
			<output>
				<port id="1" precision="FP32">
					<dim>1</dim>
					<dim>192</dim>
					<dim>1</dim>
					<dim>1</dim>
				</port>
			</output>
		</layer>
		<layer id="349" name="Conv_51" type="Add" version="opset1">
			<data auto_broadcast="numpy"/>
			<input>
				<port id="0">
					<dim>1</dim>
					<dim>192</dim>
					<dim>90</dim>
					<dim>160</dim>
				</port>
				<port id="1">
					<dim>1</dim>
					<dim>192</dim>
					<dim>1</dim>
					<dim>1</dim>
				</port>
			</input>
			<output>
				<port id="2" precision="FP32" names="2838">
					<dim>1</dim>
					<dim>192</dim>
					<dim>90</dim>
					<dim>160</dim>
				</port>
			</output>
		</layer>
		<layer id="350" name="Clip_54" type="Clamp" version="opset1">
			<data max="6" min="0"/>
			<input>
				<port id="0">
					<dim>1</dim>
					<dim>192</dim>
					<dim>90</dim>
					<dim>160</dim>
				</port>
			</input>
			<output>
				<port id="1" precision="FP32" names="433">
					<dim>1</dim>
					<dim>192</dim>
					<dim>90</dim>
					<dim>160</dim>
				</port>
			</output>
		</layer>
		<layer id="351" name="Conv_55/WithoutBiases/fq_input_0" type="FakeQuantize" version="opset1">
			<data levels="256" auto_broadcast="numpy"/>
			<input>
				<port id="0">
					<dim>1</dim>
					<dim>192</dim>
					<dim>90</dim>
					<dim>160</dim>
				</port>
				<port id="1"/>
				<port id="2"/>
				<port id="3"/>
				<port id="4"/>
			</input>
			<output>
				<port id="5" precision="FP32">
					<dim>1</dim>
					<dim>192</dim>
					<dim>90</dim>
					<dim>160</dim>
				</port>
			</output>
		</layer>
		<layer id="352" name="Conv_55/WithoutBiases/fq_weights_1/scale2979647499" type="Const" version="opset1">
			<data offset="46574" size="128" shape="32,1,1,1" element_type="f32"/>
			<output>
				<port id="0" precision="FP32">
					<dim>32</dim>
					<dim>1</dim>
					<dim>1</dim>
					<dim>1</dim>
				</port>
			</output>
		</layer>
		<layer id="353" name="2842298425890/restored_convert/quantized2978845513" type="Const" version="opset1">
			<data offset="46702" size="6144" shape="32,192,1,1" element_type="i8"/>
			<output>
				<port id="0" precision="I8">
					<dim>32</dim>
					<dim>192</dim>
					<dim>1</dim>
					<dim>1</dim>
				</port>
			</output>
		</layer>
		<layer id="354" name="2842298425890/restored_convert/quantized/to_f32" type="Convert" version="opset1">
			<data destination_type="f32"/>
			<input>
				<port id="0">
					<dim>32</dim>
					<dim>192</dim>
					<dim>1</dim>
					<dim>1</dim>
				</port>
			</input>
			<output>
				<port id="1" precision="FP32">
					<dim>32</dim>
					<dim>192</dim>
					<dim>1</dim>
					<dim>1</dim>
				</port>
			</output>
		</layer>
		<layer id="355" name="Conv_55/WithoutBiases/fq_weights_1/mulpiply_by_scale" type="Multiply" version="opset1">
			<data auto_broadcast="numpy"/>
			<input>
				<port id="0">
					<dim>32</dim>
					<dim>192</dim>
					<dim>1</dim>
					<dim>1</dim>
				</port>
				<port id="1">
					<dim>32</dim>
					<dim>1</dim>
					<dim>1</dim>
					<dim>1</dim>
				</port>
			</input>
			<output>
				<port id="2" precision="FP32">
					<dim>32</dim>
					<dim>192</dim>
					<dim>1</dim>
					<dim>1</dim>
				</port>
			</output>
		</layer>
		<layer id="356" name="Conv_55/WithoutBiases" type="Convolution" version="opset1">
			<data auto_pad="explicit" strides="1,1" dilations="1,1" pads_begin="0,0" pads_end="0,0"/>
			<input>
				<port id="0">
					<dim>1</dim>
					<dim>192</dim>
					<dim>90</dim>
					<dim>160</dim>
				</port>
				<port id="1">
					<dim>32</dim>
					<dim>192</dim>
					<dim>1</dim>
					<dim>1</dim>
				</port>
			</input>
			<output>
				<port id="2" precision="FP32">
					<dim>1</dim>
					<dim>32</dim>
					<dim>90</dim>
					<dim>160</dim>
				</port>
			</output>
		</layer>
		<layer id="357" name="Reshape_1993298744685" type="Const" version="opset1">
			<data offset="52846" size="64" shape="1,32,1,1" element_type="f16"/>
			<output>
				<port id="0" precision="FP16">
					<dim>1</dim>
					<dim>32</dim>
					<dim>1</dim>
					<dim>1</dim>
				</port>
			</output>
		</layer>
		<layer id="358" name="Reshape_1993298725891/restored_convert" type="Convert" version="opset1">
			<data destination_type="f32"/>
			<rt_info>
				<attribute name="decompression" version="0"/>
			</rt_info>
			<input>
				<port id="0">
					<dim>1</dim>
					<dim>32</dim>
					<dim>1</dim>
					<dim>1</dim>
				</port>
			</input>
			<output>
				<port id="1" precision="FP32">
					<dim>1</dim>
					<dim>32</dim>
					<dim>1</dim>
					<dim>1</dim>
				</port>
			</output>
		</layer>
		<layer id="359" name="Conv_55" type="Add" version="opset1">
			<data auto_broadcast="numpy"/>
			<input>
				<port id="0">
					<dim>1</dim>
					<dim>32</dim>
					<dim>90</dim>
					<dim>160</dim>
				</port>
				<port id="1">
					<dim>1</dim>
					<dim>32</dim>
					<dim>1</dim>
					<dim>1</dim>
				</port>
			</input>
			<output>
				<port id="2" precision="FP32" names="2841">
					<dim>1</dim>
					<dim>32</dim>
					<dim>90</dim>
					<dim>160</dim>
				</port>
			</output>
		</layer>
		<layer id="360" name="Add_56/fq_input_0" type="FakeQuantize" version="opset1">
			<data levels="256" auto_broadcast="numpy"/>
			<input>
				<port id="0">
					<dim>1</dim>
					<dim>32</dim>
					<dim>90</dim>
					<dim>160</dim>
				</port>
				<port id="1"/>
				<port id="2"/>
				<port id="3"/>
				<port id="4"/>
			</input>
			<output>
				<port id="5" precision="FP32">
					<dim>1</dim>
					<dim>32</dim>
					<dim>90</dim>
					<dim>160</dim>
				</port>
			</output>
		</layer>
		<layer id="361" name="Add_56" type="Add" version="opset1">
			<data auto_broadcast="numpy"/>
			<input>
				<port id="0">
					<dim>1</dim>
					<dim>32</dim>
					<dim>90</dim>
					<dim>160</dim>
				</port>
				<port id="1">
					<dim>1</dim>
					<dim>32</dim>
					<dim>90</dim>
					<dim>160</dim>
				</port>
			</input>
			<output>
				<port id="2" precision="FP32" names="436">
					<dim>1</dim>
					<dim>32</dim>
					<dim>90</dim>
					<dim>160</dim>
				</port>
			</output>
		</layer>
		<layer id="362" name="Add_66/fq_input_1" type="FakeQuantize" version="opset1">
			<data levels="256" auto_broadcast="numpy"/>
			<input>
				<port id="0">
					<dim>1</dim>
					<dim>32</dim>
					<dim>90</dim>
					<dim>160</dim>
				</port>
				<port id="1"/>
				<port id="2"/>
				<port id="3"/>
				<port id="4"/>
			</input>
			<output>
				<port id="5" precision="FP32">
					<dim>1</dim>
					<dim>32</dim>
					<dim>90</dim>
					<dim>160</dim>
				</port>
			</output>
		</layer>
		<layer id="363" name="Conv_57/WithoutBiases/fq_weights_1/scale3039643911" type="Const" version="opset1">
			<data offset="52910" size="768" shape="192,1,1,1" element_type="f32"/>
			<output>
				<port id="0" precision="FP32">
					<dim>192</dim>
					<dim>1</dim>
					<dim>1</dim>
					<dim>1</dim>
				</port>
			</output>
		</layer>
		<layer id="364" name="2845299125892/restored_convert/quantized3038842249" type="Const" version="opset1">
			<data offset="53678" size="6144" shape="192,32,1,1" element_type="i8"/>
			<output>
				<port id="0" precision="I8">
					<dim>192</dim>
					<dim>32</dim>
					<dim>1</dim>
					<dim>1</dim>
				</port>
			</output>
		</layer>
		<layer id="365" name="2845299125892/restored_convert/quantized/to_f32" type="Convert" version="opset1">
			<data destination_type="f32"/>
			<input>
				<port id="0">
					<dim>192</dim>
					<dim>32</dim>
					<dim>1</dim>
					<dim>1</dim>
				</port>
			</input>
			<output>
				<port id="1" precision="FP32">
					<dim>192</dim>
					<dim>32</dim>
					<dim>1</dim>
					<dim>1</dim>
				</port>
			</output>
		</layer>
		<layer id="366" name="Conv_57/WithoutBiases/fq_weights_1/mulpiply_by_scale" type="Multiply" version="opset1">
			<data auto_broadcast="numpy"/>
			<input>
				<port id="0">
					<dim>192</dim>
					<dim>32</dim>
					<dim>1</dim>
					<dim>1</dim>
				</port>
				<port id="1">
					<dim>192</dim>
					<dim>1</dim>
					<dim>1</dim>
					<dim>1</dim>
				</port>
			</input>
			<output>
				<port id="2" precision="FP32">
					<dim>192</dim>
					<dim>32</dim>
					<dim>1</dim>
					<dim>1</dim>
				</port>
			</output>
		</layer>
		<layer id="367" name="Conv_57/WithoutBiases" type="Convolution" version="opset1">
			<data auto_pad="explicit" strides="1,1" dilations="1,1" pads_begin="0,0" pads_end="0,0"/>
			<input>
				<port id="0">
					<dim>1</dim>
					<dim>32</dim>
					<dim>90</dim>
					<dim>160</dim>
				</port>
				<port id="1">
					<dim>192</dim>
					<dim>32</dim>
					<dim>1</dim>
					<dim>1</dim>
				</port>
			</input>
			<output>
				<port id="2" precision="FP32">
					<dim>1</dim>
					<dim>192</dim>
					<dim>90</dim>
					<dim>160</dim>
				</port>
			</output>
		</layer>
		<layer id="368" name="Reshape_2042299446701" type="Const" version="opset1">
			<data offset="59822" size="384" shape="1,192,1,1" element_type="f16"/>
			<output>
				<port id="0" precision="FP16">
					<dim>1</dim>
					<dim>192</dim>
					<dim>1</dim>
					<dim>1</dim>
				</port>
			</output>
		</layer>
		<layer id="369" name="Reshape_2042299425893/restored_convert" type="Convert" version="opset1">
			<data destination_type="f32"/>
			<rt_info>
				<attribute name="decompression" version="0"/>
			</rt_info>
			<input>
				<port id="0">
					<dim>1</dim>
					<dim>192</dim>
					<dim>1</dim>
					<dim>1</dim>
				</port>
			</input>
			<output>
				<port id="1" precision="FP32">
					<dim>1</dim>
					<dim>192</dim>
					<dim>1</dim>
					<dim>1</dim>
				</port>
			</output>
		</layer>
		<layer id="370" name="Conv_57" type="Add" version="opset1">
			<data auto_broadcast="numpy"/>
			<input>
				<port id="0">
					<dim>1</dim>
					<dim>192</dim>
					<dim>90</dim>
					<dim>160</dim>
				</port>
				<port id="1">
					<dim>1</dim>
					<dim>192</dim>
					<dim>1</dim>
					<dim>1</dim>
				</port>
			</input>
			<output>
				<port id="2" precision="FP32" names="2844">
					<dim>1</dim>
					<dim>192</dim>
					<dim>90</dim>
					<dim>160</dim>
				</port>
			</output>
		</layer>
		<layer id="371" name="Clip_60" type="Clamp" version="opset1">
			<data max="6" min="0"/>
			<input>
				<port id="0">
					<dim>1</dim>
					<dim>192</dim>
					<dim>90</dim>
					<dim>160</dim>
				</port>
			</input>
			<output>
				<port id="1" precision="FP32" names="441">
					<dim>1</dim>
					<dim>192</dim>
					<dim>90</dim>
					<dim>160</dim>
				</port>
			</output>
		</layer>
		<layer id="372" name="Conv_61/WithoutBiases/fq_input_0" type="FakeQuantize" version="opset1">
			<data levels="256" auto_broadcast="numpy"/>
			<input>
				<port id="0">
					<dim>1</dim>
					<dim>192</dim>
					<dim>90</dim>
					<dim>160</dim>
				</port>
				<port id="1">
					<dim>1</dim>
					<dim>192</dim>
					<dim>1</dim>
					<dim>1</dim>
				</port>
				<port id="2">
					<dim>1</dim>
					<dim>192</dim>
					<dim>1</dim>
					<dim>1</dim>
				</port>
				<port id="3">
					<dim>1</dim>
					<dim>192</dim>
					<dim>1</dim>
					<dim>1</dim>
				</port>
				<port id="4">
					<dim>1</dim>
					<dim>192</dim>
					<dim>1</dim>
					<dim>1</dim>
				</port>
			</input>
			<output>
				<port id="5" precision="FP32">
					<dim>1</dim>
					<dim>192</dim>
					<dim>90</dim>
					<dim>160</dim>
				</port>
			</output>
		</layer>
		<layer id="373" name="Conv_61/WithoutBiases/fq_weights_1/scale2904647199" type="Const" version="opset1">
			<data offset="60206" size="768" shape="192,1,1,1" element_type="f32"/>
			<output>
				<port id="0" precision="FP32">
					<dim>192</dim>
					<dim>1</dim>
					<dim>1</dim>
					<dim>1</dim>
				</port>
			</output>
		</layer>
		<layer id="374" name="Reshape_2079299825894/restored_convert/quantized2903844859" type="Const" version="opset1">
			<data offset="60974" size="1728" shape="192,1,3,3" element_type="i8"/>
			<output>
				<port id="0" precision="I8">
					<dim>192</dim>
					<dim>1</dim>
					<dim>3</dim>
					<dim>3</dim>
				</port>
			</output>
		</layer>
		<layer id="375" name="Reshape_2079299825894/restored_convert/quantized/to_f32" type="Convert" version="opset1">
			<data destination_type="f32"/>
			<input>
				<port id="0">
					<dim>192</dim>
					<dim>1</dim>
					<dim>3</dim>
					<dim>3</dim>
				</port>
			</input>
			<output>
				<port id="1" precision="FP32">
					<dim>192</dim>
					<dim>1</dim>
					<dim>3</dim>
					<dim>3</dim>
				</port>
			</output>
		</layer>
		<layer id="376" name="Conv_61/WithoutBiases/fq_weights_1/mulpiply_by_scale" type="Multiply" version="opset1">
			<data auto_broadcast="numpy"/>
			<input>
				<port id="0">
					<dim>192</dim>
					<dim>1</dim>
					<dim>3</dim>
					<dim>3</dim>
				</port>
				<port id="1">
					<dim>192</dim>
					<dim>1</dim>
					<dim>1</dim>
					<dim>1</dim>
				</port>
			</input>
			<output>
				<port id="2" precision="FP32">
					<dim>192</dim>
					<dim>1</dim>
					<dim>3</dim>
					<dim>3</dim>
				</port>
			</output>
		</layer>
		<layer id="377" name="Conv_61/WithoutBiases/GOI_weights_part3787446878" type="Const" version="opset1">
			<data offset="46166" size="24" shape="3" element_type="i64"/>
			<output>
				<port id="0" precision="I64">
					<dim>3</dim>
				</port>
			</output>
		</layer>
		<layer id="378" name="Conv_61/WithoutBiases/WeightsShape" type="ShapeOf" version="opset3">
			<data output_type="i64"/>
			<input>
				<port id="0">
					<dim>192</dim>
					<dim>1</dim>
					<dim>3</dim>
					<dim>3</dim>
				</port>
			</input>
			<output>
				<port id="1" precision="I64">
					<dim>4</dim>
				</port>
			</output>
		</layer>
		<layer id="379" name="Conv_61/WithoutBiases/XY_weights_part_input_port_1/value3787043392" type="Const" version="opset1">
			<data offset="8270" size="16" shape="2" element_type="i64"/>
			<output>
				<port id="0" precision="I64">
					<dim>2</dim>
				</port>
			</output>
		</layer>
		<layer id="380" name="Conv_61/WithoutBiases/XY_weights_part_input_port_2/value3787245498" type="Const" version="opset1">
			<data offset="8286" size="8" shape="" element_type="i64"/>
			<output>
				<port id="0" precision="I64"/>
			</output>
		</layer>
		<layer id="381" name="Conv_61/WithoutBiases/XY_weights_part" type="Gather" version="opset8">
			<data batch_dims="0"/>
			<input>
				<port id="0">
					<dim>4</dim>
				</port>
				<port id="1">
					<dim>2</dim>
				</port>
				<port id="2"/>
			</input>
			<output>
				<port id="3" precision="I64">
					<dim>2</dim>
				</port>
			</output>
		</layer>
		<layer id="382" name="Conv_61/WithoutBiases/weights_shape" type="Concat" version="opset1">
			<data axis="0"/>
			<input>
				<port id="0">
					<dim>3</dim>
				</port>
				<port id="1">
					<dim>2</dim>
				</port>
			</input>
			<output>
				<port id="2" precision="I64">
					<dim>5</dim>
				</port>
			</output>
		</layer>
		<layer id="383" name="37876" type="Reshape" version="opset1">
			<data special_zero="true"/>
			<input>
				<port id="0">
					<dim>192</dim>
					<dim>1</dim>
					<dim>3</dim>
					<dim>3</dim>
				</port>
				<port id="1">
					<dim>5</dim>
				</port>
			</input>
			<output>
				<port id="2" precision="FP32">
					<dim>192</dim>
					<dim>1</dim>
					<dim>1</dim>
					<dim>3</dim>
					<dim>3</dim>
				</port>
			</output>
		</layer>
		<layer id="384" name="Conv_61/WithoutBiases" type="GroupConvolution" version="opset1">
			<data auto_pad="explicit" strides="1,1" dilations="1,1" pads_begin="1,1" pads_end="1,1"/>
			<input>
				<port id="0">
					<dim>1</dim>
					<dim>192</dim>
					<dim>90</dim>
					<dim>160</dim>
				</port>
				<port id="1">
					<dim>192</dim>
					<dim>1</dim>
					<dim>1</dim>
					<dim>3</dim>
					<dim>3</dim>
				</port>
			</input>
			<output>
				<port id="2" precision="FP32">
					<dim>1</dim>
					<dim>192</dim>
					<dim>90</dim>
					<dim>160</dim>
				</port>
			</output>
		</layer>
		<layer id="385" name="Reshape_2165300146905" type="Const" version="opset1">
			<data offset="62702" size="384" shape="1,192,1,1" element_type="f16"/>
			<output>
				<port id="0" precision="FP16">
					<dim>1</dim>
					<dim>192</dim>
					<dim>1</dim>
					<dim>1</dim>
				</port>
			</output>
		</layer>
		<layer id="386" name="Reshape_2165300125895/restored_convert" type="Convert" version="opset1">
			<data destination_type="f32"/>
			<rt_info>
				<attribute name="decompression" version="0"/>
			</rt_info>
			<input>
				<port id="0">
					<dim>1</dim>
					<dim>192</dim>
					<dim>1</dim>
					<dim>1</dim>
				</port>
			</input>
			<output>
				<port id="1" precision="FP32">
					<dim>1</dim>
					<dim>192</dim>
					<dim>1</dim>
					<dim>1</dim>
				</port>
			</output>
		</layer>
		<layer id="387" name="Conv_61" type="Add" version="opset1">
			<data auto_broadcast="numpy"/>
			<input>
				<port id="0">
					<dim>1</dim>
					<dim>192</dim>
					<dim>90</dim>
					<dim>160</dim>
				</port>
				<port id="1">
					<dim>1</dim>
					<dim>192</dim>
					<dim>1</dim>
					<dim>1</dim>
				</port>
			</input>
			<output>
				<port id="2" precision="FP32" names="2847">
					<dim>1</dim>
					<dim>192</dim>
					<dim>90</dim>
					<dim>160</dim>
				</port>
			</output>
		</layer>
		<layer id="388" name="Clip_64" type="Clamp" version="opset1">
			<data max="6" min="0"/>
			<input>
				<port id="0">
					<dim>1</dim>
					<dim>192</dim>
					<dim>90</dim>
					<dim>160</dim>
				</port>
			</input>
			<output>
				<port id="1" precision="FP32" names="446">
					<dim>1</dim>
					<dim>192</dim>
					<dim>90</dim>
					<dim>160</dim>
				</port>
			</output>
		</layer>
		<layer id="389" name="Conv_65/WithoutBiases/fq_input_0" type="FakeQuantize" version="opset1">
			<data levels="256" auto_broadcast="numpy"/>
			<input>
				<port id="0">
					<dim>1</dim>
					<dim>192</dim>
					<dim>90</dim>
					<dim>160</dim>
				</port>
				<port id="1"/>
				<port id="2"/>
				<port id="3"/>
				<port id="4"/>
			</input>
			<output>
				<port id="5" precision="FP32">
					<dim>1</dim>
					<dim>192</dim>
					<dim>90</dim>
					<dim>160</dim>
				</port>
			</output>
		</layer>
		<layer id="390" name="Conv_65/WithoutBiases/fq_weights_1/scale2997646752" type="Const" version="opset1">
			<data offset="63086" size="128" shape="32,1,1,1" element_type="f32"/>
			<output>
				<port id="0" precision="FP32">
					<dim>32</dim>
					<dim>1</dim>
					<dim>1</dim>
					<dim>1</dim>
				</port>
			</output>
		</layer>
		<layer id="391" name="2851300525896/restored_convert/quantized2996846665" type="Const" version="opset1">
			<data offset="63214" size="6144" shape="32,192,1,1" element_type="i8"/>
			<output>
				<port id="0" precision="I8">
					<dim>32</dim>
					<dim>192</dim>
					<dim>1</dim>
					<dim>1</dim>
				</port>
			</output>
		</layer>
		<layer id="392" name="2851300525896/restored_convert/quantized/to_f32" type="Convert" version="opset1">
			<data destination_type="f32"/>
			<input>
				<port id="0">
					<dim>32</dim>
					<dim>192</dim>
					<dim>1</dim>
					<dim>1</dim>
				</port>
			</input>
			<output>
				<port id="1" precision="FP32">
					<dim>32</dim>
					<dim>192</dim>
					<dim>1</dim>
					<dim>1</dim>
				</port>
			</output>
		</layer>
		<layer id="393" name="Conv_65/WithoutBiases/fq_weights_1/mulpiply_by_scale" type="Multiply" version="opset1">
			<data auto_broadcast="numpy"/>
			<input>
				<port id="0">
					<dim>32</dim>
					<dim>192</dim>
					<dim>1</dim>
					<dim>1</dim>
				</port>
				<port id="1">
					<dim>32</dim>
					<dim>1</dim>
					<dim>1</dim>
					<dim>1</dim>
				</port>
			</input>
			<output>
				<port id="2" precision="FP32">
					<dim>32</dim>
					<dim>192</dim>
					<dim>1</dim>
					<dim>1</dim>
				</port>
			</output>
		</layer>
		<layer id="394" name="Conv_65/WithoutBiases" type="Convolution" version="opset1">
			<data auto_pad="explicit" strides="1,1" dilations="1,1" pads_begin="0,0" pads_end="0,0"/>
			<input>
				<port id="0">
					<dim>1</dim>
					<dim>192</dim>
					<dim>90</dim>
					<dim>160</dim>
				</port>
				<port id="1">
					<dim>32</dim>
					<dim>192</dim>
					<dim>1</dim>
					<dim>1</dim>
				</port>
			</input>
			<output>
				<port id="2" precision="FP32">
					<dim>1</dim>
					<dim>32</dim>
					<dim>90</dim>
					<dim>160</dim>
				</port>
			</output>
		</layer>
		<layer id="395" name="Reshape_2215300843893" type="Const" version="opset1">
			<data offset="69358" size="64" shape="1,32,1,1" element_type="f16"/>
			<output>
				<port id="0" precision="FP16">
					<dim>1</dim>
					<dim>32</dim>
					<dim>1</dim>
					<dim>1</dim>
				</port>
			</output>
		</layer>
		<layer id="396" name="Reshape_2215300825897/restored_convert" type="Convert" version="opset1">
			<data destination_type="f32"/>
			<rt_info>
				<attribute name="decompression" version="0"/>
			</rt_info>
			<input>
				<port id="0">
					<dim>1</dim>
					<dim>32</dim>
					<dim>1</dim>
					<dim>1</dim>
				</port>
			</input>
			<output>
				<port id="1" precision="FP32">
					<dim>1</dim>
					<dim>32</dim>
					<dim>1</dim>
					<dim>1</dim>
				</port>
			</output>
		</layer>
		<layer id="397" name="Conv_65" type="Add" version="opset1">
			<data auto_broadcast="numpy"/>
			<input>
				<port id="0">
					<dim>1</dim>
					<dim>32</dim>
					<dim>90</dim>
					<dim>160</dim>
				</port>
				<port id="1">
					<dim>1</dim>
					<dim>32</dim>
					<dim>1</dim>
					<dim>1</dim>
				</port>
			</input>
			<output>
				<port id="2" precision="FP32" names="2850">
					<dim>1</dim>
					<dim>32</dim>
					<dim>90</dim>
					<dim>160</dim>
				</port>
			</output>
		</layer>
		<layer id="398" name="Add_66/fq_input_0" type="FakeQuantize" version="opset1">
			<data levels="256" auto_broadcast="numpy"/>
			<input>
				<port id="0">
					<dim>1</dim>
					<dim>32</dim>
					<dim>90</dim>
					<dim>160</dim>
				</port>
				<port id="1"/>
				<port id="2"/>
				<port id="3"/>
				<port id="4"/>
			</input>
			<output>
				<port id="5" precision="FP32">
					<dim>1</dim>
					<dim>32</dim>
					<dim>90</dim>
					<dim>160</dim>
				</port>
			</output>
		</layer>
		<layer id="399" name="Add_66" type="Add" version="opset1">
			<data auto_broadcast="numpy"/>
			<input>
				<port id="0">
					<dim>1</dim>
					<dim>32</dim>
					<dim>90</dim>
					<dim>160</dim>
				</port>
				<port id="1">
					<dim>1</dim>
					<dim>32</dim>
					<dim>90</dim>
					<dim>160</dim>
				</port>
			</input>
			<output>
				<port id="2" precision="FP32" names="449">
					<dim>1</dim>
					<dim>32</dim>
					<dim>90</dim>
					<dim>160</dim>
				</port>
			</output>
		</layer>
		<layer id="400" name="Conv_173/WithoutBiases/fq_input_0" type="FakeQuantize" version="opset1">
			<data levels="256" auto_broadcast="numpy"/>
			<input>
				<port id="0">
					<dim>1</dim>
					<dim>32</dim>
					<dim>90</dim>
					<dim>160</dim>
				</port>
				<port id="1"/>
				<port id="2"/>
				<port id="3"/>
				<port id="4"/>
			</input>
			<output>
				<port id="5" precision="FP32">
					<dim>1</dim>
					<dim>32</dim>
					<dim>90</dim>
					<dim>160</dim>
				</port>
			</output>
		</layer>
		<layer id="401" name="Conv_173/WithoutBiases/fq_weights_1/scale3006643293" type="Const" version="opset1">
			<data offset="69422" size="256" shape="64,1,1,1" element_type="f32"/>
			<output>
				<port id="0" precision="FP32">
					<dim>64</dim>
					<dim>1</dim>
					<dim>1</dim>
					<dim>1</dim>
				</port>
			</output>
		</layer>
		<layer id="402" name="neck.lateral_convs.0.conv.weight301225898/restored_convert/quantized3005844289" type="Const" version="opset1">
			<data offset="69678" size="2048" shape="64,32,1,1" element_type="i8"/>
			<output>
				<port id="0" precision="I8">
					<dim>64</dim>
					<dim>32</dim>
					<dim>1</dim>
					<dim>1</dim>
				</port>
			</output>
		</layer>
		<layer id="403" name="neck.lateral_convs.0.conv.weight301225898/restored_convert/quantized/to_f32" type="Convert" version="opset1">
			<data destination_type="f32"/>
			<input>
				<port id="0">
					<dim>64</dim>
					<dim>32</dim>
					<dim>1</dim>
					<dim>1</dim>
				</port>
			</input>
			<output>
				<port id="1" precision="FP32">
					<dim>64</dim>
					<dim>32</dim>
					<dim>1</dim>
					<dim>1</dim>
				</port>
			</output>
		</layer>
		<layer id="404" name="Conv_173/WithoutBiases/fq_weights_1/mulpiply_by_scale" type="Multiply" version="opset1">
			<data auto_broadcast="numpy"/>
			<input>
				<port id="0">
					<dim>64</dim>
					<dim>32</dim>
					<dim>1</dim>
					<dim>1</dim>
				</port>
				<port id="1">
					<dim>64</dim>
					<dim>1</dim>
					<dim>1</dim>
					<dim>1</dim>
				</port>
			</input>
			<output>
				<port id="2" precision="FP32">
					<dim>64</dim>
					<dim>32</dim>
					<dim>1</dim>
					<dim>1</dim>
				</port>
			</output>
		</layer>
		<layer id="405" name="Conv_173/WithoutBiases" type="Convolution" version="opset1">
			<data auto_pad="explicit" strides="1,1" dilations="1,1" pads_begin="0,0" pads_end="0,0"/>
			<input>
				<port id="0">
					<dim>1</dim>
					<dim>32</dim>
					<dim>90</dim>
					<dim>160</dim>
				</port>
				<port id="1">
					<dim>64</dim>
					<dim>32</dim>
					<dim>1</dim>
					<dim>1</dim>
				</port>
			</input>
			<output>
				<port id="2" precision="FP32">
					<dim>1</dim>
					<dim>64</dim>
					<dim>90</dim>
					<dim>160</dim>
				</port>
			</output>
		</layer>
		<layer id="406" name="Reshape_4702301545549" type="Const" version="opset1">
			<data offset="71726" size="128" shape="1,64,1,1" element_type="f16"/>
			<output>
				<port id="0" precision="FP16">
					<dim>1</dim>
					<dim>64</dim>
					<dim>1</dim>
					<dim>1</dim>
				</port>
			</output>
		</layer>
		<layer id="407" name="Reshape_4702301525899/restored_convert" type="Convert" version="opset1">
			<data destination_type="f32"/>
			<rt_info>
				<attribute name="decompression" version="0"/>
			</rt_info>
			<input>
				<port id="0">
					<dim>1</dim>
					<dim>64</dim>
					<dim>1</dim>
					<dim>1</dim>
				</port>
			</input>
			<output>
				<port id="1" precision="FP32">
					<dim>1</dim>
					<dim>64</dim>
					<dim>1</dim>
					<dim>1</dim>
				</port>
			</output>
		</layer>
		<layer id="408" name="Conv_173" type="Add" version="opset1">
			<data auto_broadcast="numpy"/>
			<input>
				<port id="0">
					<dim>1</dim>
					<dim>64</dim>
					<dim>90</dim>
					<dim>160</dim>
				</port>
				<port id="1">
					<dim>1</dim>
					<dim>64</dim>
					<dim>1</dim>
					<dim>1</dim>
				</port>
			</input>
			<output>
				<port id="2" precision="FP32" names="589">
					<dim>1</dim>
					<dim>64</dim>
					<dim>90</dim>
					<dim>160</dim>
				</port>
			</output>
		</layer>
		<layer id="409" name="Add_215/fq_input_0" type="FakeQuantize" version="opset1">
			<data levels="256" auto_broadcast="numpy"/>
			<input>
				<port id="0">
					<dim>1</dim>
					<dim>64</dim>
					<dim>90</dim>
					<dim>160</dim>
				</port>
				<port id="1"/>
				<port id="2"/>
				<port id="3"/>
				<port id="4"/>
			</input>
			<output>
				<port id="5" precision="FP32">
					<dim>1</dim>
					<dim>64</dim>
					<dim>90</dim>
					<dim>160</dim>
				</port>
			</output>
		</layer>
		<layer id="410" name="105581056243770" type="Const" version="opset1">
			<data offset="71854" size="4" shape="" element_type="f32"/>
			<output>
				<port id="0" precision="FP32"/>
			</output>
		</layer>
		<layer id="411" name="105591056343398" type="Const" version="opset1">
			<data offset="71858" size="4" shape="" element_type="f32"/>
			<output>
				<port id="0" precision="FP32"/>
			</output>
		</layer>
		<layer id="412" name="105601056442555" type="Const" version="opset1">
			<data offset="71854" size="4" shape="" element_type="f32"/>
			<output>
				<port id="0" precision="FP32"/>
			</output>
		</layer>
		<layer id="413" name="105611056547727" type="Const" version="opset1">
			<data offset="71858" size="4" shape="" element_type="f32"/>
			<output>
				<port id="0" precision="FP32"/>
			</output>
		</layer>
		<layer id="414" name="123081231248039" type="Const" version="opset1">
			<data offset="71862" size="4" shape="" element_type="f32"/>
			<output>
				<port id="0" precision="FP32"/>
			</output>
		</layer>
		<layer id="415" name="123091231346662" type="Const" version="opset1">
			<data offset="71866" size="4" shape="" element_type="f32"/>
			<output>
				<port id="0" precision="FP32"/>
			</output>
		</layer>
		<layer id="416" name="123101231442384" type="Const" version="opset1">
			<data offset="71862" size="4" shape="" element_type="f32"/>
			<output>
				<port id="0" precision="FP32"/>
			</output>
		</layer>
		<layer id="417" name="123111231542174" type="Const" version="opset1">
			<data offset="71866" size="4" shape="" element_type="f32"/>
			<output>
				<port id="0" precision="FP32"/>
			</output>
		</layer>
		<layer id="418" name="122881229246602" type="Const" version="opset1">
			<data offset="71870" size="4" shape="" element_type="f32"/>
			<output>
				<port id="0" precision="FP32"/>
			</output>
		</layer>
		<layer id="419" name="122891229342414" type="Const" version="opset1">
			<data offset="71874" size="4" shape="" element_type="f32"/>
			<output>
				<port id="0" precision="FP32"/>
			</output>
		</layer>
		<layer id="420" name="122901229444211" type="Const" version="opset1">
			<data offset="71870" size="4" shape="" element_type="f32"/>
			<output>
				<port id="0" precision="FP32"/>
			</output>
		</layer>
		<layer id="421" name="122911229542996" type="Const" version="opset1">
			<data offset="71874" size="4" shape="" element_type="f32"/>
			<output>
				<port id="0" precision="FP32"/>
			</output>
		</layer>
		<layer id="422" name="120681207246218" type="Const" version="opset1">
			<data offset="71878" size="4" shape="" element_type="f32"/>
			<output>
				<port id="0" precision="FP32"/>
			</output>
		</layer>
		<layer id="423" name="120691207346173" type="Const" version="opset1">
			<data offset="71882" size="4" shape="" element_type="f32"/>
			<output>
				<port id="0" precision="FP32"/>
			</output>
		</layer>
		<layer id="424" name="120701207445273" type="Const" version="opset1">
			<data offset="71878" size="4" shape="" element_type="f32"/>
			<output>
				<port id="0" precision="FP32"/>
			</output>
		</layer>
		<layer id="425" name="120711207545276" type="Const" version="opset1">
			<data offset="71882" size="4" shape="" element_type="f32"/>
			<output>
				<port id="0" precision="FP32"/>
			</output>
		</layer>
		<layer id="426" name="109881099247895" type="Const" version="opset1">
			<data offset="0" size="4" shape="" element_type="f32"/>
			<output>
				<port id="0" precision="FP32"/>
			</output>
		</layer>
		<layer id="427" name="109891099343557" type="Const" version="opset1">
			<data offset="71886" size="4" shape="" element_type="f32"/>
			<output>
				<port id="0" precision="FP32"/>
			</output>
		</layer>
		<layer id="428" name="109901099444529" type="Const" version="opset1">
			<data offset="0" size="4" shape="" element_type="f32"/>
			<output>
				<port id="0" precision="FP32"/>
			</output>
		</layer>
		<layer id="429" name="109911099544499" type="Const" version="opset1">
			<data offset="71886" size="4" shape="" element_type="f32"/>
			<output>
				<port id="0" precision="FP32"/>
			</output>
		</layer>
		<layer id="430" name="102781028246824" type="Const" version="opset1">
			<data offset="71890" size="2304" shape="1,576,1,1" element_type="f32"/>
			<output>
				<port id="0" precision="FP32">
					<dim>1</dim>
					<dim>576</dim>
					<dim>1</dim>
					<dim>1</dim>
				</port>
			</output>
		</layer>
		<layer id="431" name="102791028347346" type="Const" version="opset1">
			<data offset="74194" size="2304" shape="1,576,1,1" element_type="f32"/>
			<output>
				<port id="0" precision="FP32">
					<dim>1</dim>
					<dim>576</dim>
					<dim>1</dim>
					<dim>1</dim>
				</port>
			</output>
		</layer>
		<layer id="432" name="102801028445516" type="Const" version="opset1">
			<data offset="71890" size="2304" shape="1,576,1,1" element_type="f32"/>
			<output>
				<port id="0" precision="FP32">
					<dim>1</dim>
					<dim>576</dim>
					<dim>1</dim>
					<dim>1</dim>
				</port>
			</output>
		</layer>
		<layer id="433" name="102811028542618" type="Const" version="opset1">
			<data offset="74194" size="2304" shape="1,576,1,1" element_type="f32"/>
			<output>
				<port id="0" precision="FP32">
					<dim>1</dim>
					<dim>576</dim>
					<dim>1</dim>
					<dim>1</dim>
				</port>
			</output>
		</layer>
		<layer id="434" name="120781208244913" type="Const" version="opset1">
			<data offset="76498" size="4" shape="" element_type="f32"/>
			<output>
				<port id="0" precision="FP32"/>
			</output>
		</layer>
		<layer id="435" name="120791208345483" type="Const" version="opset1">
			<data offset="76502" size="4" shape="" element_type="f32"/>
			<output>
				<port id="0" precision="FP32"/>
			</output>
		</layer>
		<layer id="436" name="120801208444697" type="Const" version="opset1">
			<data offset="76498" size="4" shape="" element_type="f32"/>
			<output>
				<port id="0" precision="FP32"/>
			</output>
		</layer>
		<layer id="437" name="120811208547967" type="Const" version="opset1">
			<data offset="76502" size="4" shape="" element_type="f32"/>
			<output>
				<port id="0" precision="FP32"/>
			</output>
		</layer>
		<layer id="438" name="132781328243707" type="Const" version="opset1">
			<data offset="76506" size="4" shape="" element_type="f32"/>
			<output>
				<port id="0" precision="FP32"/>
			</output>
		</layer>
		<layer id="439" name="132791328346110" type="Const" version="opset1">
			<data offset="76510" size="4" shape="" element_type="f32"/>
			<output>
				<port id="0" precision="FP32"/>
			</output>
		</layer>
…
		<edge from-layer="3684" from-port="3" to-layer="3688" to-port="0"/>
		<edge from-layer="3687" from-port="3" to-layer="3688" to-port="1"/>
		<edge from-layer="3688" from-port="2" to-layer="3690" to-port="0"/>
		<edge from-layer="3689" from-port="0" to-layer="3690" to-port="1"/>
		<edge from-layer="3605" from-port="2" to-layer="3694" to-port="0"/>
		<edge from-layer="3691" from-port="0" to-layer="3694" to-port="1"/>
		<edge from-layer="3692" from-port="0" to-layer="3694" to-port="2"/>
		<edge from-layer="3693" from-port="0" to-layer="3694" to-port="3"/>
		<edge from-layer="3694" from-port="4" to-layer="3695" to-port="0"/>
		<edge from-layer="3695" from-port="1" to-layer="3696" to-port="0"/>
		<edge from-layer="3690" from-port="2" to-layer="3697" to-port="0"/>
		<edge from-layer="3696" from-port="1" to-layer="3697" to-port="1"/>
		<edge from-layer="3697" from-port="2" to-layer="3698" to-port="0"/>
		<edge from-layer="3679" from-port="4" to-layer="3698" to-port="1"/>
		<edge from-layer="3681" from-port="2" to-layer="3699" to-port="0"/>
		<edge from-layer="3698" from-port="2" to-layer="3699" to-port="1"/>
		<edge from-layer="3695" from-port="1" to-layer="3700" to-port="0"/>
		<edge from-layer="3697" from-port="2" to-layer="3701" to-port="0"/>
		<edge from-layer="3700" from-port="1" to-layer="3701" to-port="1"/>
		<edge from-layer="3702" from-port="0" to-layer="3703" to-port="0"/>
		<edge from-layer="3701" from-port="2" to-layer="3704" to-port="0"/>
		<edge from-layer="3703" from-port="1" to-layer="3704" to-port="1"/>
		<edge from-layer="3699" from-port="2" to-layer="3705" to-port="0"/>
		<edge from-layer="3704" from-port="2" to-layer="3705" to-port="1"/>
		<edge from-layer="3705" from-port="2" to-layer="3707" to-port="0"/>
		<edge from-layer="3706" from-port="0" to-layer="3707" to-port="1"/>
		<edge from-layer="3708" from-port="0" to-layer="3709" to-port="0"/>
		<edge from-layer="3705" from-port="2" to-layer="3710" to-port="0"/>
		<edge from-layer="3709" from-port="1" to-layer="3711" to-port="0"/>
		<edge from-layer="3710" from-port="1" to-layer="3711" to-port="1"/>
		<edge from-layer="3711" from-port="2" to-layer="3713" to-port="0"/>
		<edge from-layer="3712" from-port="0" to-layer="3713" to-port="1"/>
		<edge from-layer="3707" from-port="2" to-layer="3714" to-port="0"/>
		<edge from-layer="3713" from-port="2" to-layer="3714" to-port="1"/>
		<edge from-layer="3714" from-port="2" to-layer="3716" to-port="0"/>
		<edge from-layer="3715" from-port="0" to-layer="3716" to-port="1"/>
		<edge from-layer="3716" from-port="2" to-layer="3718" to-port="0"/>
		<edge from-layer="3717" from-port="0" to-layer="3718" to-port="1"/>
		<edge from-layer="2739" from-port="4" to-layer="3721" to-port="0"/>
		<edge from-layer="3719" from-port="0" to-layer="3721" to-port="1"/>
		<edge from-layer="3720" from-port="0" to-layer="3721" to-port="2"/>
		<edge from-layer="3721" from-port="3" to-layer="3722" to-port="0"/>
		<edge from-layer="3722" from-port="1" to-layer="3724" to-port="0"/>
		<edge from-layer="3723" from-port="0" to-layer="3724" to-port="1"/>
		<edge from-layer="3716" from-port="2" to-layer="3725" to-port="0"/>
		<edge from-layer="3724" from-port="2" to-layer="3726" to-port="0"/>
		<edge from-layer="3725" from-port="1" to-layer="3726" to-port="1"/>
		<edge from-layer="3726" from-port="2" to-layer="3728" to-port="0"/>
		<edge from-layer="3727" from-port="0" to-layer="3728" to-port="1"/>
		<edge from-layer="3718" from-port="2" to-layer="3729" to-port="0"/>
		<edge from-layer="3728" from-port="2" to-layer="3729" to-port="1"/>
		<edge from-layer="3729" from-port="2" to-layer="3731" to-port="0"/>
		<edge from-layer="3730" from-port="0" to-layer="3731" to-port="1"/>
		<edge from-layer="3731" from-port="2" to-layer="3733" to-port="0"/>
		<edge from-layer="3732" from-port="0" to-layer="3733" to-port="1"/>
		<edge from-layer="3734" from-port="0" to-layer="3735" to-port="0"/>
		<edge from-layer="3631" from-port="2" to-layer="3736" to-port="0"/>
		<edge from-layer="3735" from-port="1" to-layer="3736" to-port="1"/>
		<edge from-layer="3629" from-port="2" to-layer="3737" to-port="0"/>
		<edge from-layer="3736" from-port="2" to-layer="3737" to-port="1"/>
		<edge from-layer="3737" from-port="2" to-layer="3739" to-port="0"/>
		<edge from-layer="3738" from-port="0" to-layer="3739" to-port="1"/>
		<edge from-layer="3740" from-port="0" to-layer="3741" to-port="0"/>
		<edge from-layer="3737" from-port="2" to-layer="3742" to-port="0"/>
		<edge from-layer="3741" from-port="1" to-layer="3743" to-port="0"/>
		<edge from-layer="3742" from-port="1" to-layer="3743" to-port="1"/>
		<edge from-layer="3743" from-port="2" to-layer="3745" to-port="0"/>
		<edge from-layer="3744" from-port="0" to-layer="3745" to-port="1"/>
		<edge from-layer="3739" from-port="2" to-layer="3746" to-port="0"/>
		<edge from-layer="3745" from-port="2" to-layer="3746" to-port="1"/>
		<edge from-layer="3746" from-port="2" to-layer="3748" to-port="0"/>
		<edge from-layer="3747" from-port="0" to-layer="3748" to-port="1"/>
		<edge from-layer="3748" from-port="2" to-layer="3750" to-port="0"/>
		<edge from-layer="3749" from-port="0" to-layer="3750" to-port="1"/>
		<edge from-layer="2739" from-port="4" to-layer="3753" to-port="0"/>
		<edge from-layer="3751" from-port="0" to-layer="3753" to-port="1"/>
		<edge from-layer="3752" from-port="0" to-layer="3753" to-port="2"/>
		<edge from-layer="3753" from-port="3" to-layer="3754" to-port="0"/>
		<edge from-layer="3754" from-port="1" to-layer="3756" to-port="0"/>
		<edge from-layer="3755" from-port="0" to-layer="3756" to-port="1"/>
		<edge from-layer="3748" from-port="2" to-layer="3757" to-port="0"/>
		<edge from-layer="3756" from-port="2" to-layer="3758" to-port="0"/>
		<edge from-layer="3757" from-port="1" to-layer="3758" to-port="1"/>
		<edge from-layer="3758" from-port="2" to-layer="3760" to-port="0"/>
		<edge from-layer="3759" from-port="0" to-layer="3760" to-port="1"/>
		<edge from-layer="3750" from-port="2" to-layer="3761" to-port="0"/>
		<edge from-layer="3760" from-port="2" to-layer="3761" to-port="1"/>
		<edge from-layer="3761" from-port="2" to-layer="3763" to-port="0"/>
		<edge from-layer="3762" from-port="0" to-layer="3763" to-port="1"/>
		<edge from-layer="3763" from-port="2" to-layer="3765" to-port="0"/>
		<edge from-layer="3764" from-port="0" to-layer="3765" to-port="1"/>
		<edge from-layer="3766" from-port="0" to-layer="3767" to-port="0"/>
		<edge from-layer="3701" from-port="2" to-layer="3768" to-port="0"/>
		<edge from-layer="3767" from-port="1" to-layer="3768" to-port="1"/>
		<edge from-layer="3699" from-port="2" to-layer="3769" to-port="0"/>
		<edge from-layer="3768" from-port="2" to-layer="3769" to-port="1"/>
		<edge from-layer="3769" from-port="2" to-layer="3771" to-port="0"/>
		<edge from-layer="3770" from-port="0" to-layer="3771" to-port="1"/>
		<edge from-layer="3772" from-port="0" to-layer="3773" to-port="0"/>
		<edge from-layer="3769" from-port="2" to-layer="3774" to-port="0"/>
		<edge from-layer="3773" from-port="1" to-layer="3775" to-port="0"/>
		<edge from-layer="3774" from-port="1" to-layer="3775" to-port="1"/>
		<edge from-layer="3775" from-port="2" to-layer="3777" to-port="0"/>
		<edge from-layer="3776" from-port="0" to-layer="3777" to-port="1"/>
		<edge from-layer="3771" from-port="2" to-layer="3778" to-port="0"/>
		<edge from-layer="3777" from-port="2" to-layer="3778" to-port="1"/>
		<edge from-layer="3778" from-port="2" to-layer="3780" to-port="0"/>
		<edge from-layer="3779" from-port="0" to-layer="3780" to-port="1"/>
		<edge from-layer="3780" from-port="2" to-layer="3782" to-port="0"/>
		<edge from-layer="3781" from-port="0" to-layer="3782" to-port="1"/>
		<edge from-layer="2739" from-port="4" to-layer="3785" to-port="0"/>
		<edge from-layer="3783" from-port="0" to-layer="3785" to-port="1"/>
		<edge from-layer="3784" from-port="0" to-layer="3785" to-port="2"/>
		<edge from-layer="3785" from-port="3" to-layer="3786" to-port="0"/>
		<edge from-layer="3786" from-port="1" to-layer="3788" to-port="0"/>
		<edge from-layer="3787" from-port="0" to-layer="3788" to-port="1"/>
		<edge from-layer="3780" from-port="2" to-layer="3789" to-port="0"/>
		<edge from-layer="3788" from-port="2" to-layer="3790" to-port="0"/>
		<edge from-layer="3789" from-port="1" to-layer="3790" to-port="1"/>
		<edge from-layer="3790" from-port="2" to-layer="3792" to-port="0"/>
		<edge from-layer="3791" from-port="0" to-layer="3792" to-port="1"/>
		<edge from-layer="3782" from-port="2" to-layer="3793" to-port="0"/>
		<edge from-layer="3792" from-port="2" to-layer="3793" to-port="1"/>
		<edge from-layer="3793" from-port="2" to-layer="3795" to-port="0"/>
		<edge from-layer="3794" from-port="0" to-layer="3795" to-port="1"/>
		<edge from-layer="3795" from-port="2" to-layer="3797" to-port="0"/>
		<edge from-layer="3796" from-port="0" to-layer="3797" to-port="1"/>
		<edge from-layer="3663" from-port="2" to-layer="3798" to-port="0"/>
		<edge from-layer="3733" from-port="2" to-layer="3798" to-port="1"/>
		<edge from-layer="3765" from-port="2" to-layer="3798" to-port="2"/>
		<edge from-layer="3797" from-port="2" to-layer="3798" to-port="3"/>
		<edge from-layer="3798" from-port="4" to-layer="3799" to-port="0"/>
		<edge from-layer="3582" from-port="1" to-layer="3799" to-port="1"/>
		<edge from-layer="2414" from-port="2" to-layer="3801" to-port="0"/>
		<edge from-layer="3801" from-port="1" to-layer="3804" to-port="0"/>
		<edge from-layer="3802" from-port="0" to-layer="3804" to-port="1"/>
		<edge from-layer="3803" from-port="0" to-layer="3804" to-port="2"/>
		<edge from-layer="3800" from-port="0" to-layer="3806" to-port="0"/>
		<edge from-layer="3804" from-port="3" to-layer="3806" to-port="1"/>
		<edge from-layer="3805" from-port="0" to-layer="3806" to-port="2"/>
		<edge from-layer="3806" from-port="3" to-layer="3808" to-port="0"/>
		<edge from-layer="3807" from-port="0" to-layer="3808" to-port="1"/>
		<edge from-layer="3808" from-port="2" to-layer="3810" to-port="0"/>
		<edge from-layer="3809" from-port="0" to-layer="3810" to-port="1"/>
		<edge from-layer="3810" from-port="2" to-layer="3812" to-port="0"/>
		<edge from-layer="3811" from-port="0" to-layer="3813" to-port="0"/>
		<edge from-layer="3812" from-port="1" to-layer="3813" to-port="1"/>
		<edge from-layer="3810" from-port="2" to-layer="3814" to-port="0"/>
		<edge from-layer="3813" from-port="2" to-layer="3814" to-port="1"/>
		<edge from-layer="3801" from-port="1" to-layer="3818" to-port="0"/>
		<edge from-layer="3816" from-port="0" to-layer="3818" to-port="1"/>
		<edge from-layer="3817" from-port="0" to-layer="3818" to-port="2"/>
		<edge from-layer="3815" from-port="0" to-layer="3820" to-port="0"/>
		<edge from-layer="3818" from-port="3" to-layer="3820" to-port="1"/>
		<edge from-layer="3819" from-port="0" to-layer="3820" to-port="2"/>
		<edge from-layer="3820" from-port="3" to-layer="3822" to-port="0"/>
		<edge from-layer="3821" from-port="0" to-layer="3822" to-port="1"/>
		<edge from-layer="3822" from-port="2" to-layer="3824" to-port="0"/>
		<edge from-layer="3823" from-port="0" to-layer="3824" to-port="1"/>
		<edge from-layer="3824" from-port="2" to-layer="3825" to-port="0"/>
		<edge from-layer="3825" from-port="1" to-layer="3826" to-port="0"/>
		<edge from-layer="3812" from-port="1" to-layer="3826" to-port="1"/>
		<edge from-layer="3814" from-port="2" to-layer="3827" to-port="0"/>
		<edge from-layer="3826" from-port="2" to-layer="3827" to-port="1"/>
		<edge from-layer="3827" from-port="2" to-layer="3829" to-port="0"/>
		<edge from-layer="3828" from-port="0" to-layer="3829" to-port="1"/>
		<edge from-layer="3825" from-port="1" to-layer="3831" to-port="0"/>
		<edge from-layer="3830" from-port="0" to-layer="3831" to-port="1"/>
		<edge from-layer="3824" from-port="2" to-layer="3832" to-port="0"/>
		<edge from-layer="3831" from-port="2" to-layer="3832" to-port="1"/>
		<edge from-layer="3832" from-port="2" to-layer="3833" to-port="0"/>
		<edge from-layer="3826" from-port="2" to-layer="3833" to-port="1"/>
		<edge from-layer="3833" from-port="2" to-layer="3835" to-port="0"/>
		<edge from-layer="3834" from-port="0" to-layer="3835" to-port="1"/>
		<edge from-layer="3827" from-port="2" to-layer="3837" to-port="0"/>
		<edge from-layer="3836" from-port="0" to-layer="3837" to-port="1"/>
		<edge from-layer="3833" from-port="2" to-layer="3839" to-port="0"/>
		<edge from-layer="3838" from-port="0" to-layer="3839" to-port="1"/>
		<edge from-layer="3829" from-port="2" to-layer="3840" to-port="0"/>
		<edge from-layer="3835" from-port="2" to-layer="3840" to-port="1"/>
		<edge from-layer="3837" from-port="2" to-layer="3840" to-port="2"/>
		<edge from-layer="3839" from-port="2" to-layer="3840" to-port="3"/>
		<edge from-layer="3840" from-port="4" to-layer="3842" to-port="0"/>
		<edge from-layer="3841" from-port="0" to-layer="3842" to-port="1"/>
		<edge from-layer="3842" from-port="2" to-layer="3843" to-port="0"/>
		<edge from-layer="3844" from-port="0" to-layer="3845" to-port="0"/>
		<edge from-layer="3845" from-port="1" to-layer="3846" to-port="0"/>
		<edge from-layer="3843" from-port="1" to-layer="3846" to-port="1"/>
		<edge from-layer="3846" from-port="2" to-layer="3848" to-port="0"/>
		<edge from-layer="3847" from-port="0" to-layer="3848" to-port="1"/>
		<edge from-layer="2581" from-port="3" to-layer="3849" to-port="0"/>
		<edge from-layer="3848" from-port="2" to-layer="3851" to-port="0"/>
		<edge from-layer="3849" from-port="1" to-layer="3851" to-port="1"/>
		<edge from-layer="3850" from-port="0" to-layer="3851" to-port="2"/>
		<edge from-layer="3851" from-port="3" to-layer="3854" to-port="0"/>
		<edge from-layer="3852" from-port="0" to-layer="3854" to-port="1"/>
		<edge from-layer="3853" from-port="0" to-layer="3854" to-port="2"/>
		<edge from-layer="3851" from-port="3" to-layer="3857" to-port="0"/>
		<edge from-layer="3855" from-port="0" to-layer="3857" to-port="1"/>
		<edge from-layer="3856" from-port="0" to-layer="3857" to-port="2"/>
		<edge from-layer="3854" from-port="3" to-layer="3858" to-port="0"/>
		<edge from-layer="3857" from-port="3" to-layer="3858" to-port="1"/>
		<edge from-layer="3859" from-port="0" to-layer="3860" to-port="0"/>
		<edge from-layer="3858" from-port="2" to-layer="3861" to-port="0"/>
		<edge from-layer="3860" from-port="1" to-layer="3861" to-port="1"/>
		<edge from-layer="3861" from-port="2" to-layer="3863" to-port="0"/>
		<edge from-layer="3862" from-port="0" to-layer="3863" to-port="1"/>
		<edge from-layer="3865" from-port="0" to-layer="3866" to-port="0"/>
		<edge from-layer="3866" from-port="1" to-layer="3867" to-port="0"/>
		<edge from-layer="3864" from-port="0" to-layer="3867" to-port="1"/>
		<edge from-layer="2546" from-port="5" to-layer="3868" to-port="0"/>
		<edge from-layer="3867" from-port="2" to-layer="3868" to-port="1"/>
		<edge from-layer="3869" from-port="0" to-layer="3870" to-port="0"/>
		<edge from-layer="3868" from-port="2" to-layer="3871" to-port="0"/>
		<edge from-layer="3870" from-port="1" to-layer="3871" to-port="1"/>
		<edge from-layer="3871" from-port="2" to-layer="3874" to-port="0"/>
		<edge from-layer="3872" from-port="0" to-layer="3874" to-port="1"/>
		<edge from-layer="3873" from-port="0" to-layer="3874" to-port="2"/>
		<edge from-layer="3874" from-port="3" to-layer="3876" to-port="0"/>
		<edge from-layer="3875" from-port="0" to-layer="3876" to-port="1"/>
		<edge from-layer="3876" from-port="2" to-layer="3878" to-port="0"/>
		<edge from-layer="3877" from-port="0" to-layer="3878" to-port="1"/>
		<edge from-layer="2581" from-port="3" to-layer="3879" to-port="0"/>
		<edge from-layer="3878" from-port="2" to-layer="3881" to-port="0"/>
		<edge from-layer="3879" from-port="1" to-layer="3881" to-port="1"/>
		<edge from-layer="3880" from-port="0" to-layer="3881" to-port="2"/>
		<edge from-layer="3882" from-port="0" to-layer="3883" to-port="0"/>
		<edge from-layer="3881" from-port="3" to-layer="3885" to-port="0"/>
		<edge from-layer="3885" from-port="1" to-layer="3888" to-port="0"/>
		<edge from-layer="3886" from-port="0" to-layer="3888" to-port="1"/>
		<edge from-layer="3887" from-port="0" to-layer="3888" to-port="2"/>
		<edge from-layer="3888" from-port="3" to-layer="3890" to-port="0"/>
		<edge from-layer="3889" from-port="0" to-layer="3890" to-port="1"/>
		<edge from-layer="3890" from-port="2" to-layer="3892" to-port="0"/>
		<edge from-layer="3891" from-port="0" to-layer="3892" to-port="1"/>
		<edge from-layer="3884" from-port="0" to-layer="3893" to-port="0"/>
		<edge from-layer="3892" from-port="2" to-layer="3893" to-port="1"/>
		<edge from-layer="3883" from-port="1" to-layer="3894" to-port="0"/>
		<edge from-layer="3893" from-port="2" to-layer="3894" to-port="1"/>
		<edge from-layer="3881" from-port="3" to-layer="3895" to-port="0"/>
		<edge from-layer="3894" from-port="2" to-layer="3895" to-port="1"/>
		<edge from-layer="3896" from-port="0" to-layer="3897" to-port="0"/>
		<edge from-layer="3885" from-port="1" to-layer="3901" to-port="0"/>
		<edge from-layer="3899" from-port="0" to-layer="3901" to-port="1"/>
		<edge from-layer="3900" from-port="0" to-layer="3901" to-port="2"/>
		<edge from-layer="3901" from-port="3" to-layer="3903" to-port="0"/>
		<edge from-layer="3902" from-port="0" to-layer="3903" to-port="1"/>
		<edge from-layer="3903" from-port="2" to-layer="3905" to-port="0"/>
		<edge from-layer="3904" from-port="0" to-layer="3905" to-port="1"/>
		<edge from-layer="3898" from-port="0" to-layer="3906" to-port="0"/>
		<edge from-layer="3905" from-port="2" to-layer="3906" to-port="1"/>
		<edge from-layer="3897" from-port="1" to-layer="3907" to-port="0"/>
		<edge from-layer="3906" from-port="2" to-layer="3907" to-port="1"/>
		<edge from-layer="3895" from-port="2" to-layer="3908" to-port="0"/>
		<edge from-layer="3907" from-port="2" to-layer="3908" to-port="1"/>
		<edge from-layer="3908" from-port="2" to-layer="3912" to-port="0"/>
		<edge from-layer="3909" from-port="0" to-layer="3912" to-port="1"/>
		<edge from-layer="3910" from-port="0" to-layer="3912" to-port="2"/>
		<edge from-layer="3911" from-port="0" to-layer="3912" to-port="3"/>
		<edge from-layer="3912" from-port="4" to-layer="3913" to-port="0"/>
		<edge from-layer="3863" from-port="2" to-layer="3914" to-port="0"/>
		<edge from-layer="3913" from-port="1" to-layer="3914" to-port="1"/>
		<edge from-layer="3851" from-port="3" to-layer="3917" to-port="0"/>
		<edge from-layer="3915" from-port="0" to-layer="3917" to-port="1"/>
		<edge from-layer="3916" from-port="0" to-layer="3917" to-port="2"/>
		<edge from-layer="3851" from-port="3" to-layer="3920" to-port="0"/>
		<edge from-layer="3918" from-port="0" to-layer="3920" to-port="1"/>
		<edge from-layer="3919" from-port="0" to-layer="3920" to-port="2"/>
		<edge from-layer="3917" from-port="3" to-layer="3921" to-port="0"/>
		<edge from-layer="3920" from-port="3" to-layer="3921" to-port="1"/>
		<edge from-layer="3921" from-port="2" to-layer="3923" to-port="0"/>
		<edge from-layer="3922" from-port="0" to-layer="3923" to-port="1"/>
		<edge from-layer="3908" from-port="2" to-layer="3927" to-port="0"/>
		<edge from-layer="3924" from-port="0" to-layer="3927" to-port="1"/>
		<edge from-layer="3925" from-port="0" to-layer="3927" to-port="2"/>
		<edge from-layer="3926" from-port="0" to-layer="3927" to-port="3"/>
		<edge from-layer="3927" from-port="4" to-layer="3928" to-port="0"/>
		<edge from-layer="3928" from-port="1" to-layer="3929" to-port="0"/>
		<edge from-layer="3923" from-port="2" to-layer="3930" to-port="0"/>
		<edge from-layer="3929" from-port="1" to-layer="3930" to-port="1"/>
		<edge from-layer="3930" from-port="2" to-layer="3931" to-port="0"/>
		<edge from-layer="3912" from-port="4" to-layer="3931" to-port="1"/>
		<edge from-layer="3914" from-port="2" to-layer="3932" to-port="0"/>
		<edge from-layer="3931" from-port="2" to-layer="3932" to-port="1"/>
		<edge from-layer="3928" from-port="1" to-layer="3933" to-port="0"/>
		<edge from-layer="3930" from-port="2" to-layer="3934" to-port="0"/>
		<edge from-layer="3933" from-port="1" to-layer="3934" to-port="1"/>
		<edge from-layer="3935" from-port="0" to-layer="3936" to-port="0"/>
		<edge from-layer="3934" from-port="2" to-layer="3937" to-port="0"/>
		<edge from-layer="3936" from-port="1" to-layer="3937" to-port="1"/>
		<edge from-layer="3932" from-port="2" to-layer="3938" to-port="0"/>
		<edge from-layer="3937" from-port="2" to-layer="3938" to-port="1"/>
		<edge from-layer="3938" from-port="2" to-layer="3940" to-port="0"/>
		<edge from-layer="3939" from-port="0" to-layer="3940" to-port="1"/>
		<edge from-layer="3941" from-port="0" to-layer="3942" to-port="0"/>
		<edge from-layer="3938" from-port="2" to-layer="3943" to-port="0"/>
		<edge from-layer="3942" from-port="1" to-layer="3944" to-port="0"/>
		<edge from-layer="3943" from-port="1" to-layer="3944" to-port="1"/>
		<edge from-layer="3944" from-port="2" to-layer="3946" to-port="0"/>
		<edge from-layer="3945" from-port="0" to-layer="3946" to-port="1"/>
		<edge from-layer="3940" from-port="2" to-layer="3947" to-port="0"/>
		<edge from-layer="3946" from-port="2" to-layer="3947" to-port="1"/>
		<edge from-layer="3947" from-port="2" to-layer="3949" to-port="0"/>
		<edge from-layer="3948" from-port="0" to-layer="3949" to-port="1"/>
		<edge from-layer="3949" from-port="2" to-layer="3951" to-port="0"/>
		<edge from-layer="3950" from-port="0" to-layer="3951" to-port="1"/>
		<edge from-layer="2739" from-port="4" to-layer="3954" to-port="0"/>
		<edge from-layer="3952" from-port="0" to-layer="3954" to-port="1"/>
		<edge from-layer="3953" from-port="0" to-layer="3954" to-port="2"/>
		<edge from-layer="3954" from-port="3" to-layer="3955" to-port="0"/>
		<edge from-layer="3955" from-port="1" to-layer="3957" to-port="0"/>
		<edge from-layer="3956" from-port="0" to-layer="3957" to-port="1"/>
		<edge from-layer="3949" from-port="2" to-layer="3958" to-port="0"/>
		<edge from-layer="3957" from-port="2" to-layer="3959" to-port="0"/>
		<edge from-layer="3958" from-port="1" to-layer="3959" to-port="1"/>
		<edge from-layer="3959" from-port="2" to-layer="3961" to-port="0"/>
		<edge from-layer="3960" from-port="0" to-layer="3961" to-port="1"/>
		<edge from-layer="3951" from-port="2" to-layer="3962" to-port="0"/>
		<edge from-layer="3961" from-port="2" to-layer="3962" to-port="1"/>
		<edge from-layer="3962" from-port="2" to-layer="3964" to-port="0"/>
		<edge from-layer="3963" from-port="0" to-layer="3964" to-port="1"/>
		<edge from-layer="3964" from-port="2" to-layer="3966" to-port="0"/>
		<edge from-layer="3965" from-port="0" to-layer="3966" to-port="1"/>
		<edge from-layer="3851" from-port="3" to-layer="3969" to-port="0"/>
		<edge from-layer="3967" from-port="0" to-layer="3969" to-port="1"/>
		<edge from-layer="3968" from-port="0" to-layer="3969" to-port="2"/>
		<edge from-layer="3851" from-port="3" to-layer="3972" to-port="0"/>
		<edge from-layer="3970" from-port="0" to-layer="3972" to-port="1"/>
		<edge from-layer="3971" from-port="0" to-layer="3972" to-port="2"/>
		<edge from-layer="3969" from-port="3" to-layer="3973" to-port="0"/>
		<edge from-layer="3972" from-port="3" to-layer="3973" to-port="1"/>
		<edge from-layer="3974" from-port="0" to-layer="3975" to-port="0"/>
		<edge from-layer="3973" from-port="2" to-layer="3976" to-port="0"/>
		<edge from-layer="3975" from-port="1" to-layer="3976" to-port="1"/>
		<edge from-layer="3976" from-port="2" to-layer="3978" to-port="0"/>
		<edge from-layer="3977" from-port="0" to-layer="3978" to-port="1"/>
		<edge from-layer="3908" from-port="2" to-layer="3982" to-port="0"/>
		<edge from-layer="3979" from-port="0" to-layer="3982" to-port="1"/>
		<edge from-layer="3980" from-port="0" to-layer="3982" to-port="2"/>
		<edge from-layer="3981" from-port="0" to-layer="3982" to-port="3"/>
		<edge from-layer="3982" from-port="4" to-layer="3983" to-port="0"/>
		<edge from-layer="3978" from-port="2" to-layer="3984" to-port="0"/>
		<edge from-layer="3983" from-port="1" to-layer="3984" to-port="1"/>
		<edge from-layer="3851" from-port="3" to-layer="3987" to-port="0"/>
		<edge from-layer="3985" from-port="0" to-layer="3987" to-port="1"/>
		<edge from-layer="3986" from-port="0" to-layer="3987" to-port="2"/>
		<edge from-layer="3851" from-port="3" to-layer="3990" to-port="0"/>
		<edge from-layer="3988" from-port="0" to-layer="3990" to-port="1"/>
		<edge from-layer="3989" from-port="0" to-layer="3990" to-port="2"/>
		<edge from-layer="3987" from-port="3" to-layer="3991" to-port="0"/>
		<edge from-layer="3990" from-port="3" to-layer="3991" to-port="1"/>
		<edge from-layer="3991" from-port="2" to-layer="3993" to-port="0"/>
		<edge from-layer="3992" from-port="0" to-layer="3993" to-port="1"/>
		<edge from-layer="3908" from-port="2" to-layer="3997" to-port="0"/>
		<edge from-layer="3994" from-port="0" to-layer="3997" to-port="1"/>
		<edge from-layer="3995" from-port="0" to-layer="3997" to-port="2"/>
		<edge from-layer="3996" from-port="0" to-layer="3997" to-port="3"/>
		<edge from-layer="3997" from-port="4" to-layer="3998" to-port="0"/>
		<edge from-layer="3998" from-port="1" to-layer="3999" to-port="0"/>
		<edge from-layer="3993" from-port="2" to-layer="4000" to-port="0"/>
		<edge from-layer="3999" from-port="1" to-layer="4000" to-port="1"/>
		<edge from-layer="4000" from-port="2" to-layer="4001" to-port="0"/>
		<edge from-layer="3982" from-port="4" to-layer="4001" to-port="1"/>
		<edge from-layer="3984" from-port="2" to-layer="4002" to-port="0"/>
		<edge from-layer="4001" from-port="2" to-layer="4002" to-port="1"/>
		<edge from-layer="3998" from-port="1" to-layer="4003" to-port="0"/>
		<edge from-layer="4000" from-port="2" to-layer="4004" to-port="0"/>
		<edge from-layer="4003" from-port="1" to-layer="4004" to-port="1"/>
		<edge from-layer="4005" from-port="0" to-layer="4006" to-port="0"/>
		<edge from-layer="4004" from-port="2" to-layer="4007" to-port="0"/>
		<edge from-layer="4006" from-port="1" to-layer="4007" to-port="1"/>
		<edge from-layer="4002" from-port="2" to-layer="4008" to-port="0"/>
		<edge from-layer="4007" from-port="2" to-layer="4008" to-port="1"/>
		<edge from-layer="4008" from-port="2" to-layer="4010" to-port="0"/>
		<edge from-layer="4009" from-port="0" to-layer="4010" to-port="1"/>
		<edge from-layer="4011" from-port="0" to-layer="4012" to-port="0"/>
		<edge from-layer="4008" from-port="2" to-layer="4013" to-port="0"/>
		<edge from-layer="4012" from-port="1" to-layer="4014" to-port="0"/>
		<edge from-layer="4013" from-port="1" to-layer="4014" to-port="1"/>
		<edge from-layer="4014" from-port="2" to-layer="4016" to-port="0"/>
		<edge from-layer="4015" from-port="0" to-layer="4016" to-port="1"/>
		<edge from-layer="4010" from-port="2" to-layer="4017" to-port="0"/>
		<edge from-layer="4016" from-port="2" to-layer="4017" to-port="1"/>
		<edge from-layer="4017" from-port="2" to-layer="4019" to-port="0"/>
		<edge from-layer="4018" from-port="0" to-layer="4019" to-port="1"/>
		<edge from-layer="4019" from-port="2" to-layer="4021" to-port="0"/>
		<edge from-layer="4020" from-port="0" to-layer="4021" to-port="1"/>
		<edge from-layer="2739" from-port="4" to-layer="4024" to-port="0"/>
		<edge from-layer="4022" from-port="0" to-layer="4024" to-port="1"/>
		<edge from-layer="4023" from-port="0" to-layer="4024" to-port="2"/>
		<edge from-layer="4024" from-port="3" to-layer="4025" to-port="0"/>
		<edge from-layer="4025" from-port="1" to-layer="4027" to-port="0"/>
		<edge from-layer="4026" from-port="0" to-layer="4027" to-port="1"/>
		<edge from-layer="4019" from-port="2" to-layer="4028" to-port="0"/>
		<edge from-layer="4027" from-port="2" to-layer="4029" to-port="0"/>
		<edge from-layer="4028" from-port="1" to-layer="4029" to-port="1"/>
		<edge from-layer="4029" from-port="2" to-layer="4031" to-port="0"/>
		<edge from-layer="4030" from-port="0" to-layer="4031" to-port="1"/>
		<edge from-layer="4021" from-port="2" to-layer="4032" to-port="0"/>
		<edge from-layer="4031" from-port="2" to-layer="4032" to-port="1"/>
		<edge from-layer="4032" from-port="2" to-layer="4034" to-port="0"/>
		<edge from-layer="4033" from-port="0" to-layer="4034" to-port="1"/>
		<edge from-layer="4034" from-port="2" to-layer="4036" to-port="0"/>
		<edge from-layer="4035" from-port="0" to-layer="4036" to-port="1"/>
		<edge from-layer="4037" from-port="0" to-layer="4038" to-port="0"/>
		<edge from-layer="3934" from-port="2" to-layer="4039" to-port="0"/>
		<edge from-layer="4038" from-port="1" to-layer="4039" to-port="1"/>
		<edge from-layer="3932" from-port="2" to-layer="4040" to-port="0"/>
		<edge from-layer="4039" from-port="2" to-layer="4040" to-port="1"/>
		<edge from-layer="4040" from-port="2" to-layer="4042" to-port="0"/>
		<edge from-layer="4041" from-port="0" to-layer="4042" to-port="1"/>
		<edge from-layer="4043" from-port="0" to-layer="4044" to-port="0"/>
		<edge from-layer="4040" from-port="2" to-layer="4045" to-port="0"/>
		<edge from-layer="4044" from-port="1" to-layer="4046" to-port="0"/>
		<edge from-layer="4045" from-port="1" to-layer="4046" to-port="1"/>
		<edge from-layer="4046" from-port="2" to-layer="4048" to-port="0"/>
		<edge from-layer="4047" from-port="0" to-layer="4048" to-port="1"/>
		<edge from-layer="4042" from-port="2" to-layer="4049" to-port="0"/>
		<edge from-layer="4048" from-port="2" to-layer="4049" to-port="1"/>
		<edge from-layer="4049" from-port="2" to-layer="4051" to-port="0"/>
		<edge from-layer="4050" from-port="0" to-layer="4051" to-port="1"/>
		<edge from-layer="4051" from-port="2" to-layer="4053" to-port="0"/>
		<edge from-layer="4052" from-port="0" to-layer="4053" to-port="1"/>
		<edge from-layer="2739" from-port="4" to-layer="4056" to-port="0"/>
		<edge from-layer="4054" from-port="0" to-layer="4056" to-port="1"/>
		<edge from-layer="4055" from-port="0" to-layer="4056" to-port="2"/>
		<edge from-layer="4056" from-port="3" to-layer="4057" to-port="0"/>
		<edge from-layer="4057" from-port="1" to-layer="4059" to-port="0"/>
		<edge from-layer="4058" from-port="0" to-layer="4059" to-port="1"/>
		<edge from-layer="4051" from-port="2" to-layer="4060" to-port="0"/>
		<edge from-layer="4059" from-port="2" to-layer="4061" to-port="0"/>
		<edge from-layer="4060" from-port="1" to-layer="4061" to-port="1"/>
		<edge from-layer="4061" from-port="2" to-layer="4063" to-port="0"/>
		<edge from-layer="4062" from-port="0" to-layer="4063" to-port="1"/>
		<edge from-layer="4053" from-port="2" to-layer="4064" to-port="0"/>
		<edge from-layer="4063" from-port="2" to-layer="4064" to-port="1"/>
		<edge from-layer="4064" from-port="2" to-layer="4066" to-port="0"/>
		<edge from-layer="4065" from-port="0" to-layer="4066" to-port="1"/>
		<edge from-layer="4066" from-port="2" to-layer="4068" to-port="0"/>
		<edge from-layer="4067" from-port="0" to-layer="4068" to-port="1"/>
		<edge from-layer="4069" from-port="0" to-layer="4070" to-port="0"/>
		<edge from-layer="4004" from-port="2" to-layer="4071" to-port="0"/>
		<edge from-layer="4070" from-port="1" to-layer="4071" to-port="1"/>
		<edge from-layer="4002" from-port="2" to-layer="4072" to-port="0"/>
		<edge from-layer="4071" from-port="2" to-layer="4072" to-port="1"/>
		<edge from-layer="4072" from-port="2" to-layer="4074" to-port="0"/>
		<edge from-layer="4073" from-port="0" to-layer="4074" to-port="1"/>
		<edge from-layer="4075" from-port="0" to-layer="4076" to-port="0"/>
		<edge from-layer="4072" from-port="2" to-layer="4077" to-port="0"/>
		<edge from-layer="4076" from-port="1" to-layer="4078" to-port="0"/>
		<edge from-layer="4077" from-port="1" to-layer="4078" to-port="1"/>
		<edge from-layer="4078" from-port="2" to-layer="4080" to-port="0"/>
		<edge from-layer="4079" from-port="0" to-layer="4080" to-port="1"/>
		<edge from-layer="4074" from-port="2" to-layer="4081" to-port="0"/>
		<edge from-layer="4080" from-port="2" to-layer="4081" to-port="1"/>
		<edge from-layer="4081" from-port="2" to-layer="4083" to-port="0"/>
		<edge from-layer="4082" from-port="0" to-layer="4083" to-port="1"/>
		<edge from-layer="4083" from-port="2" to-layer="4085" to-port="0"/>
		<edge from-layer="4084" from-port="0" to-layer="4085" to-port="1"/>
		<edge from-layer="2739" from-port="4" to-layer="4088" to-port="0"/>
		<edge from-layer="4086" from-port="0" to-layer="4088" to-port="1"/>
		<edge from-layer="4087" from-port="0" to-layer="4088" to-port="2"/>
		<edge from-layer="4088" from-port="3" to-layer="4089" to-port="0"/>
		<edge from-layer="4089" from-port="1" to-layer="4091" to-port="0"/>
		<edge from-layer="4090" from-port="0" to-layer="4091" to-port="1"/>
		<edge from-layer="4083" from-port="2" to-layer="4092" to-port="0"/>
		<edge from-layer="4091" from-port="2" to-layer="4093" to-port="0"/>
		<edge from-layer="4092" from-port="1" to-layer="4093" to-port="1"/>
		<edge from-layer="4093" from-port="2" to-layer="4095" to-port="0"/>
		<edge from-layer="4094" from-port="0" to-layer="4095" to-port="1"/>
		<edge from-layer="4085" from-port="2" to-layer="4096" to-port="0"/>
		<edge from-layer="4095" from-port="2" to-layer="4096" to-port="1"/>
		<edge from-layer="4096" from-port="2" to-layer="4098" to-port="0"/>
		<edge from-layer="4097" from-port="0" to-layer="4098" to-port="1"/>
		<edge from-layer="4098" from-port="2" to-layer="4100" to-port="0"/>
		<edge from-layer="4099" from-port="0" to-layer="4100" to-port="1"/>
		<edge from-layer="3966" from-port="2" to-layer="4101" to-port="0"/>
		<edge from-layer="4036" from-port="2" to-layer="4101" to-port="1"/>
		<edge from-layer="4068" from-port="2" to-layer="4101" to-port="2"/>
		<edge from-layer="4100" from-port="2" to-layer="4101" to-port="3"/>
		<edge from-layer="4101" from-port="4" to-layer="4102" to-port="0"/>
		<edge from-layer="3885" from-port="1" to-layer="4102" to-port="1"/>
		<edge from-layer="2890" from-port="2" to-layer="4103" to-port="0"/>
		<edge from-layer="3193" from-port="2" to-layer="4103" to-port="1"/>
		<edge from-layer="3496" from-port="2" to-layer="4103" to-port="2"/>
		<edge from-layer="3799" from-port="2" to-layer="4103" to-port="3"/>
		<edge from-layer="4102" from-port="2" to-layer="4103" to-port="4"/>
		<edge from-layer="4103" from-port="5" to-layer="4105" to-port="0"/>
		<edge from-layer="4104" from-port="0" to-layer="4105" to-port="1"/>
		<edge from-layer="1339" from-port="3" to-layer="4106" to-port="0"/>
		<edge from-layer="1160" from-port="1" to-layer="4108" to-port="0"/>
		<edge from-layer="4106" from-port="1" to-layer="4108" to-port="1"/>
		<edge from-layer="4107" from-port="0" to-layer="4108" to-port="2"/>
		<edge from-layer="1648" from-port="3" to-layer="4109" to-port="0"/>
		<edge from-layer="1489" from-port="1" to-layer="4111" to-port="0"/>
		<edge from-layer="4109" from-port="1" to-layer="4111" to-port="1"/>
		<edge from-layer="4110" from-port="0" to-layer="4111" to-port="2"/>
		<edge from-layer="1957" from-port="3" to-layer="4112" to-port="0"/>
		<edge from-layer="1798" from-port="1" to-layer="4114" to-port="0"/>
		<edge from-layer="4112" from-port="1" to-layer="4114" to-port="1"/>
		<edge from-layer="4113" from-port="0" to-layer="4114" to-port="2"/>
		<edge from-layer="2266" from-port="3" to-layer="4115" to-port="0"/>
		<edge from-layer="2107" from-port="1" to-layer="4117" to-port="0"/>
		<edge from-layer="4115" from-port="1" to-layer="4117" to-port="1"/>
		<edge from-layer="4116" from-port="0" to-layer="4117" to-port="2"/>
		<edge from-layer="2581" from-port="3" to-layer="4118" to-port="0"/>
		<edge from-layer="2422" from-port="1" to-layer="4120" to-port="0"/>
		<edge from-layer="4118" from-port="1" to-layer="4120" to-port="1"/>
		<edge from-layer="4119" from-port="0" to-layer="4120" to-port="2"/>
		<edge from-layer="4108" from-port="3" to-layer="4121" to-port="0"/>
		<edge from-layer="4111" from-port="3" to-layer="4121" to-port="1"/>
		<edge from-layer="4114" from-port="3" to-layer="4121" to-port="2"/>
		<edge from-layer="4117" from-port="3" to-layer="4121" to-port="3"/>
		<edge from-layer="4120" from-port="3" to-layer="4121" to-port="4"/>
		<edge from-layer="1339" from-port="3" to-layer="4122" to-port="0"/>
		<edge from-layer="1319" from-port="1" to-layer="4124" to-port="0"/>
		<edge from-layer="4122" from-port="1" to-layer="4124" to-port="1"/>
		<edge from-layer="4123" from-port="0" to-layer="4124" to-port="2"/>
		<edge from-layer="1648" from-port="3" to-layer="4125" to-port="0"/>
		<edge from-layer="1628" from-port="1" to-layer="4127" to-port="0"/>
		<edge from-layer="4125" from-port="1" to-layer="4127" to-port="1"/>
		<edge from-layer="4126" from-port="0" to-layer="4127" to-port="2"/>
		<edge from-layer="1957" from-port="3" to-layer="4128" to-port="0"/>
		<edge from-layer="1937" from-port="1" to-layer="4130" to-port="0"/>
		<edge from-layer="4128" from-port="1" to-layer="4130" to-port="1"/>
		<edge from-layer="4129" from-port="0" to-layer="4130" to-port="2"/>
		<edge from-layer="2266" from-port="3" to-layer="4131" to-port="0"/>
		<edge from-layer="2246" from-port="1" to-layer="4133" to-port="0"/>
		<edge from-layer="4131" from-port="1" to-layer="4133" to-port="1"/>
		<edge from-layer="4132" from-port="0" to-layer="4133" to-port="2"/>
		<edge from-layer="2581" from-port="3" to-layer="4134" to-port="0"/>
		<edge from-layer="2561" from-port="1" to-layer="4136" to-port="0"/>
		<edge from-layer="4134" from-port="1" to-layer="4136" to-port="1"/>
		<edge from-layer="4135" from-port="0" to-layer="4136" to-port="2"/>
		<edge from-layer="4124" from-port="3" to-layer="4137" to-port="0"/>
		<edge from-layer="4127" from-port="3" to-layer="4137" to-port="1"/>
		<edge from-layer="4130" from-port="3" to-layer="4137" to-port="2"/>
		<edge from-layer="4133" from-port="3" to-layer="4137" to-port="3"/>
		<edge from-layer="4136" from-port="3" to-layer="4137" to-port="4"/>
		<edge from-layer="4137" from-port="5" to-layer="4138" to-port="0"/>
		<edge from-layer="4138" from-port="1" to-layer="4140" to-port="0"/>
		<edge from-layer="4139" from-port="0" to-layer="4140" to-port="1"/>
		<edge from-layer="4137" from-port="5" to-layer="4141" to-port="0"/>
		<edge from-layer="4140" from-port="2" to-layer="4141" to-port="1"/>
		<edge from-layer="4121" from-port="5" to-layer="4142" to-port="0"/>
		<edge from-layer="4141" from-port="2" to-layer="4142" to-port="1"/>
		<edge from-layer="4142" from-port="2" to-layer="4143" to-port="0"/>
		<edge from-layer="4143" from-port="1" to-layer="4145" to-port="0"/>
		<edge from-layer="4144" from-port="0" to-layer="4145" to-port="1"/>
		<edge from-layer="4145" from-port="2" to-layer="4147" to-port="0"/>
		<edge from-layer="4146" from-port="0" to-layer="4147" to-port="1"/>
		<edge from-layer="4147" from-port="2" to-layer="4149" to-port="0"/>
		<edge from-layer="4148" from-port="0" to-layer="4149" to-port="1"/>
		<edge from-layer="4149" from-port="2" to-layer="4151" to-port="0"/>
		<edge from-layer="4150" from-port="0" to-layer="4151" to-port="1"/>
		<edge from-layer="4147" from-port="2" to-layer="4151" to-port="2"/>
		<edge from-layer="4105" from-port="2" to-layer="4152" to-port="0"/>
		<edge from-layer="4151" from-port="3" to-layer="4152" to-port="1"/>
		<edge from-layer="4152" from-port="2" to-layer="4154" to-port="0"/>
		<edge from-layer="4153" from-port="0" to-layer="4154" to-port="1"/>
		<edge from-layer="4143" from-port="1" to-layer="4158" to-port="0"/>
		<edge from-layer="4156" from-port="0" to-layer="4158" to-port="1"/>
		<edge from-layer="4157" from-port="0" to-layer="4158" to-port="2"/>
		<edge from-layer="4155" from-port="0" to-layer="4160" to-port="0"/>
		<edge from-layer="4158" from-port="3" to-layer="4160" to-port="1"/>
		<edge from-layer="4159" from-port="0" to-layer="4160" to-port="2"/>
		<edge from-layer="4160" from-port="3" to-layer="4162" to-port="0"/>
		<edge from-layer="4161" from-port="0" to-layer="4162" to-port="1"/>
		<edge from-layer="4162" from-port="2" to-layer="4163" to-port="0"/>
		<edge from-layer="4143" from-port="1" to-layer="4163" to-port="1"/>
		<edge from-layer="4163" from-port="2" to-layer="4165" to-port="0"/>
		<edge from-layer="4164" from-port="0" to-layer="4165" to-port="1"/>
		<edge from-layer="4165" from-port="2" to-layer="4166" to-port="0"/>
		<edge from-layer="4154" from-port="2" to-layer="4168" to-port="0"/>
		<edge from-layer="4167" from-port="0" to-layer="4168" to-port="1"/>
		<edge from-layer="4169" from-port="0" to-layer="4170" to-port="0"/>
		<edge from-layer="4168" from-port="2" to-layer="4171" to-port="0"/>
		<edge from-layer="4170" from-port="1" to-layer="4171" to-port="1"/>
		<edge from-layer="4166" from-port="1" to-layer="4172" to-port="0"/>
		<edge from-layer="4171" from-port="2" to-layer="4172" to-port="1"/>
		<edge from-layer="4172" from-port="2" to-layer="4174" to-port="0"/>
		<edge from-layer="4173" from-port="0" to-layer="4174" to-port="1"/>
		<edge from-layer="4154" from-port="2" to-layer="4175" to-port="0"/>
		<edge from-layer="4174" from-port="2" to-layer="4175" to-port="1"/>
		<edge from-layer="4175" from-port="2" to-layer="4177" to-port="0"/>
		<edge from-layer="4176" from-port="0" to-layer="4177" to-port="1"/>
		<edge from-layer="4142" from-port="2" to-layer="4179" to-port="0"/>
		<edge from-layer="4178" from-port="0" to-layer="4179" to-port="1"/>
		<edge from-layer="4179" from-port="2" to-layer="4181" to-port="0"/>
		<edge from-layer="4180" from-port="0" to-layer="4181" to-port="1"/>
		<edge from-layer="4181" from-port="2" to-layer="4183" to-port="0"/>
		<edge from-layer="4182" from-port="0" to-layer="4183" to-port="1"/>
		<edge from-layer="4184" from-port="0" to-layer="4185" to-port="0"/>
		<edge from-layer="4186" from-port="0" to-layer="4187" to-port="0"/>
		<edge from-layer="4177" from-port="2" to-layer="4189" to-port="0"/>
		<edge from-layer="4183" from-port="2" to-layer="4189" to-port="1"/>
		<edge from-layer="4188" from-port="0" to-layer="4189" to-port="2"/>
		<edge from-layer="4185" from-port="1" to-layer="4189" to-port="3"/>
		<edge from-layer="4187" from-port="1" to-layer="4189" to-port="4"/>
		<edge from-layer="4189" from-port="5" to-layer="4194" to-port="0"/>
		<edge from-layer="4192" from-port="0" to-layer="4194" to-port="1"/>
		<edge from-layer="4193" from-port="0" to-layer="4194" to-port="2"/>
		<edge from-layer="4194" from-port="3" to-layer="4196" to-port="0"/>
		<edge from-layer="4195" from-port="0" to-layer="4196" to-port="1"/>
		<edge from-layer="4196" from-port="2" to-layer="4197" to-port="0"/>
		<edge from-layer="4197" from-port="1" to-layer="4198" to-port="0"/>
		<edge from-layer="4154" from-port="2" to-layer="4200" to-port="0"/>
		<edge from-layer="4198" from-port="1" to-layer="4200" to-port="1"/>
		<edge from-layer="4199" from-port="0" to-layer="4200" to-port="2"/>
		<edge from-layer="4196" from-port="2" to-layer="4201" to-port="0"/>
		<edge from-layer="4201" from-port="1" to-layer="4202" to-port="0"/>
		<edge from-layer="4175" from-port="2" to-layer="4204" to-port="0"/>
		<edge from-layer="4202" from-port="1" to-layer="4204" to-port="1"/>
		<edge from-layer="4203" from-port="0" to-layer="4204" to-port="2"/>
		<edge from-layer="4196" from-port="2" to-layer="4205" to-port="0"/>
		<edge from-layer="4205" from-port="1" to-layer="4206" to-port="0"/>
		<edge from-layer="4179" from-port="2" to-layer="4208" to-port="0"/>
		<edge from-layer="4206" from-port="1" to-layer="4208" to-port="1"/>
		<edge from-layer="4207" from-port="0" to-layer="4208" to-port="2"/>
		<edge from-layer="4208" from-port="3" to-layer="4210" to-port="0"/>
		<edge from-layer="4209" from-port="0" to-layer="4210" to-port="1"/>
		<edge from-layer="4204" from-port="3" to-layer="4211" to-port="0"/>
		<edge from-layer="4210" from-port="2" to-layer="4211" to-port="1"/>
		<edge from-layer="4211" from-port="2" to-layer="4214" to-port="0"/>
		<edge from-layer="4212" from-port="0" to-layer="4214" to-port="1"/>
		<edge from-layer="4213" from-port="0" to-layer="4214" to-port="2"/>
		<edge from-layer="4214" from-port="3" to-layer="4216" to-port="0"/>
		<edge from-layer="4215" from-port="0" to-layer="4216" to-port="1"/>
		<edge from-layer="4200" from-port="3" to-layer="4217" to-port="0"/>
		<edge from-layer="4216" from-port="2" to-layer="4217" to-port="1"/>
		<edge from-layer="4196" from-port="2" to-layer="4218" to-port="0"/>
		<edge from-layer="4218" from-port="1" to-layer="4219" to-port="0"/>
		<edge from-layer="4165" from-port="2" to-layer="4221" to-port="0"/>
		<edge from-layer="4219" from-port="1" to-layer="4221" to-port="1"/>
		<edge from-layer="4220" from-port="0" to-layer="4221" to-port="2"/>
		<edge from-layer="4221" from-port="3" to-layer="4222" to-port="0"/>
		<edge from-layer="4222" from-port="1" to-layer="4224" to-port="0"/>
		<edge from-layer="4223" from-port="0" to-layer="4224" to-port="1"/>
		<edge from-layer="4217" from-port="2" to-layer="4225" to-port="0"/>
		<edge from-layer="4224" from-port="2" to-layer="4225" to-port="1"/>
		<edge from-layer="4225" from-port="2" to-layer="4229" to-port="0"/>
		<edge from-layer="4226" from-port="0" to-layer="4229" to-port="1"/>
		<edge from-layer="4227" from-port="0" to-layer="4229" to-port="2"/>
		<edge from-layer="4228" from-port="0" to-layer="4229" to-port="3"/>
		<edge from-layer="4225" from-port="2" to-layer="4233" to-port="0"/>
		<edge from-layer="4231" from-port="0" to-layer="4233" to-port="1"/>
		<edge from-layer="4232" from-port="0" to-layer="4233" to-port="2"/>
		<edge from-layer="4233" from-port="3" to-layer="4234" to-port="0"/>
		<edge from-layer="4234" from-port="1" to-layer="4236" to-port="0"/>
		<edge from-layer="4235" from-port="0" to-layer="4236" to-port="1"/>
		<edge from-layer="4229" from-port="4" to-layer="4230" to-port="0"/>
		<edge from-layer="4236" from-port="2" to-layer="4237" to-port="0"/>
	</edges>
	<meta_data>
		<MO_version value="custom_HEAD_0e242b324458ed332f0907ac6d88fc24b610d9b9"/>
		<Runtime_version value="2022.3.0-000-0e242b32445-HEAD"/>
		<legacy_path value="True"/>
		<cli_parameters>
			<caffe_parser_path value="DIR"/>
			<data_type value="FP16"/>
			<disable_nhwc_to_nchw value="False"/>
			<disable_omitting_optional value="False"/>
			<disable_resnet_optimization value="False"/>
			<disable_weights_compression value="False"/>
			<enable_concat_optimization value="False"/>
			<enable_flattening_nested_params value="False"/>
			<enable_ssd_gluoncv value="False"/>
			<extensions value="['/opt/home/sys_k8sworker/workspace/DL-Benchmark/try/convert']"/>
			<framework value="onnx"/>
			<input value="image"/>
			<input_model value="DIR/model.onnx"/>
			<input_model_is_text value="False"/>
			<input_shape value="[1,3,720,1280]"/>
			<k value="DIR/CustomLayersMapping.xml"/>
			<layout value="image(nchw)"/>
			<legacy_mxnet_model value="False"/>
			<log_level value="ERROR"/>
			<mean_values value="()"/>
			<model_name value="person-detection-0303"/>
			<output value="boxes,labels"/>
			<output_dir value="DIR"/>
			<progress value="False"/>
			<remove_memory value="False"/>
			<remove_output_softmax value="False"/>
			<reverse_input_channels value="True"/>
			<save_params_from_nd value="False"/>
			<scale_values value="image[255.0]"/>
			<silent value="True"/>
			<source_layout value="()"/>
			<static_shape value="False"/>
			<stream_output value="False"/>
			<target_layout value="()"/>
			<transform value=""/>
			<use_legacy_frontend value="False"/>
			<use_new_frontend value="False"/>
			<unset unset_cli_parameters="batch, counts, disable_fusing, finegrain_fusing, freeze_placeholder_with_value, input_checkpoint, input_meta_graph, input_proto, input_symbol, mean_file, mean_file_offsets, nd_prefix_name, pretrained_model_name, saved_model_dir, saved_model_tags, scale, tensorboard_logdir, tensorflow_custom_layer_libraries, tensorflow_custom_operations_config_update, tensorflow_object_detection_api_pipeline_config, tensorflow_use_custom_operations_config, transformations_config"/>
		</cli_parameters>
	</meta_data>
	<quantization_parameters>
		<config>{
		'compression': {
			'algorithms': [
				{
					'name': 'DefaultQuantization',
					'params': {
						'num_samples_for_tuning': 2000,
						'preset': 'performance',
						'stat_subset_size': 300,
						'use_layerwise_tuning': false
					}
				}
			],
			'dump_intermediate_model': true,
			'target_device': 'ANY'
		},
		'engine': {
			'models': [
				{
					'name': 'person-detection-0303',
					'launchers': [
						{
							'framework': 'openvino',
							'adapter': {
								'type': 'class_agnostic_detection',
								'scale': [
									0.00078125,
									0.0013888888
								]
							},
							'device': 'cpu'
						}
					],
					'datasets': [
						{
							'name': 'crossroad_extra_untagged_person_hb',
							'data_source': 'PATH',
							'annotation_conversion': {
								'converter': 'mscoco_detection',
								'annotation_file': 'PATH',
								'has_background': true,
								'sort_annotations': true,
								'use_full_label_map': false
							},
							'annotation': 'PATH',
							'dataset_meta': 'PATH',
							'preprocessing': [
								{
									'type': 'resize',
									'dst_width': 1280,
									'dst_height': 720
								}
							],
							'postprocessing': [
								{
									'type': 'resize_prediction_boxes'
								},
								{
									'type': 'cast_to_int'
								},
								{
									'type': 'nms',
									'overlap': 0.6
								},
								{
									'type': 'clip_boxes',
									'apply_to': 'prediction'
								}
							],
							'metrics': [
								{
									'type': 'coco_orig_precision',
									'reference': 0.444
								}
							],
							'_command_line_mapping': {
								'annotation_file': 'PATH'
							}
						}
					]
				}
			],
			'stat_requests_number': null,
			'eval_requests_number': null,
			'type': 'accuracy_checker'
		}
	}</config>
		<version value="invalid version"/>
		<cli_params value="{'quantize': None, 'preset': None, 'model': None, 'weights': None, 'name': None, 'engine': None, 'ac_config': None, 'max_drop': None, 'evaluate': False, 'output_dir': 'PATH', 'direct_dump': True, 'log_level': 'INFO', 'pbar': False, 'stream_output': False, 'keep_uncompressed_weights': False, 'data_source': None}"/>
	</quantization_parameters>
</net>
